master_research/saved_model/models_dm_epo20.pth (torch, 121868 bytes, 25 tensors)

weight f4 [64, 17]
-0.09726912 -0.0819632 0.19286637 -0.17848638 -0.03493789 0.009265382 0.054877345 0.08519353
0.090861104 0.21358821 -0.16298464 0.06921623 0.20951112 -0.05057582 0.104560465 -0.24086522
-0.11672588 -0.09199617 -0.20317774 0.12749675 0.005965976 0.12989792 0.19920497 0.2597987
0.25371838 0.02929564 0.052190926 -0.103181235 -0.02356939 -0.17726025 -0.13883848 0.19773716
-0.09273972 -0.09679626 -0.19540149 0.19230269 0.20106076 -0.06316342 0.13087939 -0.19357826
-0.15475214 -0.057438508 0.048714925 -0.2334118 0.015568458 0.24671301 -0.0738045 -0.12862833
-0.1166092 -0.042054903 0.23972768 -0.106468104 0.04810434 -0.07452505 -0.017985923 -0.020658964
-0.08386092 0.16818534 -0.08567068 0.16161525 -0.16525574 0.07946685 0.02481456 -0.14149922
-0.052389335 0.007942729 0.00032381178 0.020813713 0.20321614 0.17395572 -0.11720473 0.2098834
-0.050392035 -0.014220076 0.04821942 -0.01305063 0.19707209 -0.22196233 0.17858367 0.21603014
-0.025608536 -0.10285658 0.20180361 0.01237129 0.10423933 -0.10060258 0.041338354 0.0668309
0.15133551 0.22428407 -0.18657252 -0.023318792 0.010163097 0.018875962 0.06585096 0.0015658261
0.044352457 -0.07961577 0.17526391 0.11510626 -0.07411512 -0.10874444 0.1905219 -0.13062698
0.20760658 -0.13396056 0.0739653 0.08665715 0.0071654627 0.061969414 -0.09667364 -0.09745451
-0.0036551221 0.18614984 -0.073825374 -0.1268585 -0.15084158 -0.16385277 0.20888041 -0.1399582
0.22973545 -0.006667413 -0.057855334 0.18090233 -0.20396332 -0.0071459096 0.18457724 -0.13527752
0.18150717 0.06217846 0.06195582 0.21236832 0.1429612 0.0035475069 0.0013840615 0.03220494
-0.046091843 -0.020514296 0.16085052 0.1580768 0.24196097 -0.22990093 -0.1740941 -0.22195913
-0.010488425 0.049226005 -0.0798666 -0.04480521 0.0649175 -0.030276788 0.045017462 -0.23493224
0.23601535 0.236829 -0.08236553 0.016769305 0.116159245 0.038534127 0.033917796 -0.17593423
0.06354271 0.008421283 -0.077989906 -0.045053042 0.15598539 -0.09353125 -0.0015467625 -0.062071424
0.0063490793 0.11171128 0.06173238 0.17699209 -0.09825134 0.1370112 -0.22132026 -0.012701574
0.28189582 -0.058150914 -0.07566547 0.095606014 0.023198768 -0.15047938 -0.10287379 0.15971695
-0.12525378 0.19112597 0.2813444 0.16988443 0.06762466 -0.026213132 0.012556237 0.14776346
0.1664368 0.160427 0.25357413 0.06948755 0.11242273 -0.051460378 0.1624422 -0.022707747
-0.10868791 0.18608007 0.006983218 0.18593304 0.16164698 0.13972193 0.025870867 0.0024688235
0.12630315 -0.17417046 0.01704761 -0.119548626 -0.035044607 -0.041284256 0.18826844 0.19913507
0.09097278 0.15221716 -0.107315004 -0.12326948 0.26215458 0.16624054 0.1590011 -0.115011826
-0.08788531 0.07879901 0.06308613 0.04997416 0.013635601 -0.055402327 -0.2241482 0.062396187
-0.0074164392 -0.0693343 -0.17772432 -0.05485975 0.14827882 0.2522566 0.1407591 -0.15388805
-0.09998259 -0.033327896 0.18374552 -0.22516637 -0.14096858 0.02903062 0.14823078 0.22874059
-0.19286521 0.106314965 -0.13839673 -0.20281437 -0.08051408 0.05885846 -0.10234978 -0.27007645
00000000: 0835 c7bd 52dc a7bd c37e 453e 22c5 36be
00000010: 081b 0fbd d4cd 173c 11c7 603d f279 ae3d
00000020: 6315 ba3d deb6 5a3e 72e5 26be 3dc1 8d3d
00000030: 158a 563e 9728 4fbd cc23 d63d 5fa5 76be
00000040: fa0d efbd 7d68 bcbd d30d 50be 828e 023e
00000050: 3c7e c33b f603 053e 63fc 4b3e 5604 853e
00000060: 60e7 813e 69fd ef3c 27c6 553d af50 d3bd
00000070: 9814 c1bc b683 35be ad2b 0ebe 9c7b 4a3e
00000080: 53ee bdbd 1e3d c6bd 5417 48be ffea 443e
00000090: dfe2 4d3e d35b 81bd 3f05 063e 6139 46be
000000a0: 5877 1ebe a444 6bbd 4d89 473d 8103 6fbe
000000b0: d812 7f3c 56a2 7c3e d026 97bd 25b7 03be
000000c0: ced0 eebd c341 2cbd 2c7b 753e f30b dabd
000000d0: 0e09 453d 97a0 98bd 3757 93bc fd3c a9bc
000000e0: 46bf abbd c738 2c3e 1c74 afbd 787e 253e
000000f0: cd38 29be 84bf a23d e747 cb3c 2ce5 10be
00000100: 3396 56bd 3822 023c 48c5 a939 8581 aa3c
00000110: e417 503e 7321 323e 0909 f0bd adeb 563e
00000120: e167 4ebd 52fb 68bc ba81 453d 4fd2 55bc
00000130: 44cd 493e 184a 63be a3de 363e 0137 5d3e
00000140: fec8 d1bc 78a6 d2bd 9ba5 4e3e f3b0 4a3c
00000150: 6e7b d53d ba08 cebd 6852 293d a4de 883d
00000160: b2f7 1a3e b9aa 653e de0c 3fbe 0d07 bfbc
00000170: 1e83 263c c3a1 9a3c dedc 863d 683c cd3a
00000180: ecaa 353d 980d a3bd 6278 333e d5bc eb3d
00000190: abc9 97bd 68b5 debd 2c18 433e 14c3 05be
000001a0: d296 543e f52c 09be 1f7b 973d 4e79 b13d
000001b0: 42cc ea3b a4d3 7d3d d4fc c5bd 3b96 c7bd
000001c0: c68a 6fbb 109e 3e3e c231 97bd 32e7 01be
000001d0: 3776 1abe 05c9 27be bfe4 553e 3451 0fbe
000001e0: c53f 6b3e 507a dabb b7f9 6cbd 763e 393e
000001f0: c3db 50be 3c28 eabb d101 3d3e 3186 0abe
00000200: 04dd 393e d7ae 7e3d 63c5 7d3d 1577 593e
00000210: 6c64 123e 4a7d 683b 6669 b53a 54e9 033d
00000220: cdca 3cbd 990d a8bc 00b6 243e e2de 213e
00000230: 9ec4 773e 266b 6bbe b945 32be 4149 63be
00000240: a5d7 2bbc 35a1 493d 1a91 a3bd ab85 37bd
00000250: 77f3 843d 0707 f8bc 3b64 383d 1492 70be
00000260: 02ae 713e 4d83 723e 42af a8bd c85f 893c
00000270: e6e4 ed3d f6d5 1d3d 63ed 0a3d 1a28 34be
00000280: ae22 823d 6cf9 093c 2cb9 9fbd 8a89 38bd
00000290: a2ba 1f3e 508d bfbd bdbc caba 9b3e 7ebd
000002a0: f00b d03b e2c8 e43d 18db 7c3d 6a3d 353e
000002b0: 0038 c9bd aa4c 0c3e c7a1 62be 431a 50bc
000002c0: a654 903e a72f 6ebd 7ff6 9abd 16cd c33d
000002d0: 580b be3c 4417 1abe 7eaf d2bd d78c 233e
000002e0: 8742 00be 87b6 433e 600c 903e 2ff6 2d3e
000002f0: cc7e 8a3d ecbc d6bc adb8 4d3c 4e4f 173e
00000300: 696e 2a3e fa46 243e 78d4 813e 7d4f 8e3d
00000310: e33d e63d 1ec8 52bd 4057 263e 9905 babc
00000320: c497 debd c68b 3e3e 7ad3 e43b 3b65 3e3e
00000330: c986 253e 4413 0f3e 24ef d33c fccb 213b
00000340: 9d55 013e be59 32be 6ea7 8b3c e9d5 f4bd
00000350: ef8a 0fbd ae19 29bd 71c9 403e 10ea 4b3e
00000360: f04f ba3d d1de 1b3e f8c7 dbbd b674 fcbd
00000370: 2039 863e f63a 2a3e 2fd1 223e 528b ebbd
00000380: 37fd b3bd 6061 a13d 4d33 813d b4b1 4c3d
00000390: db67 5f3c 8ded 62bd 1b87 65be 2593 7f3d
000003a0: 9a05 f3bb 24ff 8dbd 5dfd 35be 9eb4 60bd
000003b0: 67d6 173e c727 813e 2723 103e d494 1dbe
000003c0: acc3 ccbd d582 08bd c927 3c3e 0392 66be
000003d0: 115a 10be 9fd1 ed3c cfc9 173e f93a 6a3e
000003e0: 757e 45be a9bb d93d dfb7 0dbe 92ae 4fbe
000003f0: 91e4 a4bd 9215 713d c39c d1bd 7647 8abe

bias f4 [64]
-0.13212675 -0.1586245 -0.041762657 0.10832666 0.25616467 -0.09949471 -0.127416 0.018708896
0.036732987 0.22270323 -0.043353267 0.05949414 0.0527963 -0.10478394 0.114344135 -0.07153051
-0.019893516 0.22988668 0.22739916 0.22402187 0.10626425 -0.14007397 0.029789094 0.09543125
0.20282125 0.03922642 0.18475102 0.02175822 0.19983004 -0.2108035 -0.01859138 0.17462988
0.108828016 -0.014275837 -0.13761903 -0.08702506 0.1687693 -0.16914682 -0.10583379 -0.15919703
-0.06650983 0.15512662 -0.02186573 0.041055106 0.07230191 -0.15966916 -0.00453635 0.2777642
-0.1928944 0.09588577 -0.025139092 -0.101498045 0.029805308 0.069263846 -0.20348431 -0.097290345
0.09963911 0.2492739 -0.10776512 -0.20544858 -0.10769634 0.059701007 -0.13393521 -0.14315768
00000000: 3c4c 07be 766e 22be 520f 2bbd 5eda dd3d
00000010: 0428 833e e2c3 cbbd 5779 02be 6643 993c
00000020: 5475 163d 510c 643e 3293 31bd 21b0 733d
00000030: ef40 583d f698 d6bd 422d ea3d 977e 92bd
00000040: baf7 a2bc 6a67 6b3e 53db 683e fd65 653e
00000050: 12a1 d93d 8d6f 0fbe 4208 f43c 7671 c33d
00000060: 60b0 4f3e e2ab 203d 5f2f 3d3e 4b3e b23c
00000070: 3fa0 4c3e dfdc 57be f34c 98bc 2dd2 323e
00000080: 39e1 de3d 33e5 69bc 01ec 0cbe 323a b2bd
00000090: dcd1 2c3e d334 2dbe 63bf d8bd 8c04 23be
000000a0: 4e36 88bd 83d9 1e3e c21f b3bc 6629 283d
000000b0: 0613 943d 5080 23be a9a5 94bb 1c37 8e3e
000000c0: 1c86 45be c25f c43d 7ff0 cdbc 35de cfbd
000000d0: 432a f43c 34da 8d3d 315e 50be 2940 c7bd
000000e0: 970f cc3d a841 7f3e f6b3 dcbd 1d61 52be
000000f0: e68f dcbd 0b89 743d 5026 09be ed97 12be

weight f4 [64, 64]
-0.09393872 0.13915579 0.04874579 -0.07355305 -0.02602813 0.059816528 -0.016710576 -0.07882881
0.01980335 0.03175359 -0.07254954 -0.081803925 -0.034803033 0.04452015 0.09245893 0.16892816
0.0008049088 0.01559119 -0.021048136 -0.0031056385 0.0065507945 0.12922283 -0.08474455 0.05653279
-0.1336589 0.02275466 -0.027990215 0.06654887 0.008993176 -0.061485678 0.07667099 -0.06588041
0.11822874 0.016371166 -0.0012976329 -0.04442606 -0.028573118 -0.07347223 -0.020659555 0.11004688
0.052449163 -0.04861899 -0.025862372 0.084185034 -0.022068966 -0.01775854 0.071744405 0.12023928
0.054689795 0.03766297 0.103712656 0.06687478 -0.037231702 0.08698571 0.060474046 0.13147596
-0.030966565 -0.10835644 0.030137891 -0.088336356 0.041411404 0.051926564 0.10857457 0.048239455
0.0007827093 -0.114922374 -0.051534686 0.04076718 0.043939717 0.062362403 0.15046586 0.029822543
-0.07267099 0.1568482 0.09646412 0.075246066 0.006910693 -0.06551125 -0.020760331 0.07032018
-0.008477347 -0.13863121 -0.053541668 0.108311385 0.17157257 -0.15279512 0.021224454 0.06615086
0.12057046 -0.036471438 -0.009534266 -0.056452226 0.11119464 -0.0808309 -0.10885131 -0.024033025
0.0006632925 0.07320004 0.102937505 0.057290494 0.101158105 -0.09036144 0.09155663 0.021108385
-0.15573886 0.046578337 -0.03097788 -0.003978587 -0.0036324498 0.03420807 -0.12343116 -0.039862245
0.083307624 0.037785973 -0.07835255 0.022743735 0.031428717 -0.06823649 -0.13316885 0.0104585895
0.043686725 0.08629423 0.05006155 0.068058796 0.067281164 0.012809019 0.08008807 0.0060836826
-0.0064623165 0.08311072 -0.0062337928 -0.0172535 -0.095457934 0.07772791 -0.1064245 -0.033918288
0.11972302 -0.052847274 -0.13384105 0.055968665 -0.0012071802 -0.11771639 0.008880037 -0.056803677
-0.013086922 0.0009747477 -0.09944487 -0.029743109 -0.0068043335 0.08246704 0.071315326 0.0164053
0.023166362 0.066728964 -0.04503452 0.01379561 -0.048045617 0.005748151 -0.0058207046 -0.09228952
0.0476767 -0.04097388 -0.029886128 0.04808198 -0.07002743 -0.016911184 -0.032439575 0.10361379
0.09042161 0.0026068299 -0.07549013 0.027717398 0.07665797 -0.03788926 -0.044231497 0.13775939
0.099042915 0.06716611 0.0011976584 -0.1404234 0.008696703 0.030758943 0.050788347 0.079965234
0.07835311 -0.03479853 0.048403002 0.07968508 0.11950724 -0.017637355 -0.016410807 -0.06476265
0.11180491 -0.0012220708 -0.0236082 0.023143701 -0.12792344 0.09607822 0.0030640017 -0.072251216
-0.11326139 0.06570706 -0.1008548 0.02490379 0.0668695 -0.00419083 0.035183225 -0.13167892
-0.011374051 -0.05640802 0.07021053 -0.009690236 -0.12167183 0.060075577 0.043735027 0.08591366
0.0027318154 0.03911383 -0.12451087 0.07717203 0.025560582 0.007788386 -0.018669523 -0.08568998
-0.02967061 0.009198857 -0.10404208 0.07459767 -0.068322696 0.008697774 -0.056289632 0.0104877055
-0.10667192 -0.09441467 -0.012786345 -0.07492796 0.079716116 -0.12393702 0.072230935 -0.117345706
0.057165723 -0.022351004 -0.1076154 0.062521994 -0.1192356 -0.083068445 -0.12374927 0.036812462
0.08694809 0.012329648 0.068979174 0.022647634 -0.12122813 -0.008916848 -0.049299717 0.02726174
00000000: f262 c0bd db7e 0e3e aaa9 473d fba2 96bd
00000010: f238 d5bc 2d02 753d 9ee4 88bc 0071 a1bd
00000020: a33a a23c 0d10 023d da94 94bd d188 a7bd
00000030: a08d 0ebd c35a 363d 1c5b bd3d 81fb 2c3e
00000040: 8400 533a 3172 7f3c 246d acbc f887 4bbb
00000050: 0ca8 d63b fd52 043e 8d8e adbd ed8e 673d
00000060: e1dd 08be fb67 ba3c bc4b e5bc c64a 883d
00000070: 1d58 133c 68d8 7bbd ae05 9d3d 4fec 86bd
00000080: e921 f23d d31c 863c 5615 aaba 1af8 35bd
00000090: 2c12 eabc 9c78 96bd 3a3e a9bc 4260 e13d
000000a0: efd4 563d b524 47bd 53dd d3bc 3469 ac3d
000000b0: fac9 b4bc 5c7a 91bc bbee 923d 0340 f63d
000000c0: 6802 603d 7d44 1a3d 4d67 d43d a5f5 883d
000000d0: 4580 18bd 9025 b23d a2b3 773d a2a1 063e
000000e0: 98ad fdbc fbe9 ddbd bde3 f63c b1e9 b4bd
000000f0: 019f 293d f3b0 543d 585c de3d bc96 453d
00000100: bb2e 4d3a 6c5c ebbd 0916 53bd 7dfb 263d
00000110: 22fa 333d b86f 7f3d b913 1a3e 684e f43c
00000120: 87d4 94bd d19c 203e fb8e c53d 9c1a 9a3d
00000130: 1873 e23b c32a 86bd 9211 aabc 0704 903d
00000140: 92e4 0abc 57f5 0dbe 824e 5bbd 5cd2 dd3d
00000150: b8b0 2f3e 5376 1cbe e8de ad3c 1a7a 873d
00000160: a5ed f63d 1363 15bd 9c35 1cbc 733a 67bd
00000170: 04ba e33d ac8a a5bd 70ed debd e8e0 c4bc
00000180: cee0 2d3a e7e9 953d e6d0 d23d 70a9 6a3d
00000190: fb2b cf3d 6b0f b9bd 0b82 bb3d 7eeb ac3c
000001a0: 027a 1fbe edc8 3e3d 53c5 fdbc cf5e 82bb
000001b0: 650e 6ebb c31d 0c3d 7ac9 fcbd 9846 23bd
000001c0: 309d aa3d 77c5 1a3d 4d77 a0bd 1251 ba3c
000001d0: 66bb 003d 93bf 8bbd 6a5d 08be 815a 2b3c
000001e0: daf0 323d 07bb b03d 570d 4d3d 6962 8b3d
000001f0: b5ca 893d ebdc 513c 3705 a43d a159 c73b
00000200: d7c1 d3bb f435 aa3d d844 ccbb 3657 8dbc
00000210: 737f c3bd cf2f 9f3d 17f5 d9bd e7ed 0abd
00000220: 5831 f53d 6276 58bd a10d 09be 663f 653d
00000230: 3f3a 9eba 4a15 f1bd 937d 113c f9aa 68bd
00000240: 876a 56bc 3686 7f3a c1a9 cbbd d2a7 f3bc
00000250: e3f6 debb 7be4 a83d c50d 923d 6864 863c
00000260: 62c7 bd3c 32a9 883d 1e76 38bd fb06 623c
00000270: 7bcb 44bd fc5a bc3b 9cbb bebb 4a02 bdbd
00000280: a548 433d 3ad4 27bd c1d3 f4bc 9cf1 443d
00000290: 8b6a 8fbd 5389 8abc 5cdf 04bd 7733 d43d
000002a0: f72e b93d 59d7 2a3b 929a 9abd 990f e33c
000002b0: dbfe 9c3d c531 1bbd 162c 35bd cc10 0d3e
000002c0: 03d7 ca3d 638e 893d bffa 9c3a 27cb 0fbe
000002d0: 9e7c 0e3c 2efa fb3c 7107 503d d0c4 a33d
000002e0: 9877 a03d e788 0ebd 3a42 463d ee31 a33d
000002f0: 36c0 f43d 377c 90bc f56f 86bc 48a2 84bd
00000300: f9f9 e43d e42d a0ba fc65 c1bc dc97 bd3c
00000310: 5dfe 02be a8c4 c43d 6bcd 483b 72f8 93bd
00000320: 96f5 e7bd 6c91 863d f68c cebd 0803 cc3c
00000330: e0f2 883d 3b53 89bb 491c 103d d7d6 06be
00000340: 3a5a 3abc 190c 67bd 8aca 8f3d ccc3 1ebc
00000350: 152f f9bd cf11 763d 8023 333d 80f3 af3d
00000360: 4208 333b d335 203d 8eff febd 5f0c 9e3d
00000370: 6d64 d13c b835 ff3b d4f0 98bc 3a7e afbd
00000380: c70f f3bc cdb6 163c 0414 d5bd aac6 983d
00000390: c5ec 8bbd 1c81 0e3c f58f 66bd a0d4 2b3c
000003a0: cf76 dabd 7a5c c1bd d17d 51bc d573 99bd
000003b0: 3442 a33d b1d2 fdbd d0ed 933d f252 f0bd
000003c0: 9b26 6a3d 7419 b7bc 7665 dcbd 880b 803d
000003d0: cb31 f4bd ca1f aabd 4270 fdbd aac8 163d
000003e0: d711 b23d 4b02 4a3c f444 8d3d 8887 b93c
000003f0: 7446 f8bd f917 12bc 80ee 49bd 0354 df3c

bias f4 [64]
0.104128465 0.05440096 0.11573863 -0.030062001 0.016719248 -0.0018277772 -0.06931513 -0.040543623
0.13264132 -0.06874296 -0.06977087 0.065630734 0.07721258 0.05449195 -0.13184707 0.055611856
-0.014966805 -0.11387775 0.07793856 0.08862188 0.14088292 0.07359886 0.003651978 -0.030800559
0.013517696 0.022491956 -0.056446273 -0.090136625 -0.085744485 0.018862814 -0.11927594 0.096472345
-0.0011043999 0.027121421 -0.050247934 0.1074302 0.010404832 -0.025746044 -0.027144453 0.06574252
0.11633609 -0.08870227 0.09245898 -0.01307235 -0.064431176 -0.0140652545 0.001072858 0.028550804
0.06652134 -0.071018346 -0.104186766 0.015250475 0.10385639 0.107255474 0.0915292 0.04196642
0.0036244106 -0.0058720256 0.016569497 -0.06463393 -0.0026597648 0.041123345 -0.016498413 0.033532143
00000000: 4e41 d53d 8bd3 5e3d 6008 ed3d 9644 f6bc
00000010: cef6 883c 0792 efba 17f5 8dbd 1211 26bd
00000020: 20d3 073e 1cc9 8cbd 08e4 8ebd 6869 863d
00000030: a121 9e3d f332 5f3d eb02 07be 42c9 633d
00000040: 5537 75bc bd38 e9bd 409e 9f3d 637f b53d
00000050: 9d43 103e 00bb 963d 0656 6f3b 7451 fcbc
00000060: 5479 5d3c 0d41 b83c 3534 67bd 8d99 b8bd
00000070: ce9a afbd 3086 9a3c f246 f4bd 4b93 c53d
00000080: 83c1 90ba be2d de3c c7d0 4dbd 5d04 dc3d
00000090: 0779 2a3c 5ee9 d2bc 0b5e debc 04a4 863d
000000a0: 9e41 ee3d 89a9 b5bd 225b bd3d 692d 56bc
000000b0: 7ef4 83bd f471 66bc 249f 8c3a 60e3 e93c
000000c0: 573c 883d 1172 91bd df5f d5bd 21dd 793c
000000d0: a9b2 d43d c2a8 db3d a973 bb3d fbe4 2b3d
000000e0: 8587 6d3b 1f6a c0bb c1bc 873c cb5e 84bd
000000f0: 734f 2ebb f470 283d ae27 87bc 0059 093d

weight f4 [1, 64]
-0.1551322 0.15525956 -0.08790653 -0.025360316 -0.094990306 0.09115797 0.0030680667 0.14491108
-0.062115118 -0.083751455 -0.06439965 0.039713472 0.110455856 -0.12800029 0.05526331 0.040388595
-0.107018046 -0.079749085 -0.10560525 0.13677666 0.07104392 0.04964985 -0.110347494 0.07043533
0.15329555 -0.116935834 0.07540658 -0.06813936 0.014950923 -0.07925994 0.068618365 0.0033244824
0.105196364 -0.08599788 0.089880005 0.13647893 -0.06409861 -0.045321204 0.10019349 0.055570178
-0.15387116 0.06798515 -0.13085611 -0.0958433 -0.05132109 -0.025465874 -0.090926394 0.08133581
0.0910651 -0.078373 0.07324949 0.049093816 0.06808597 0.057170473 -0.15583631 0.01225198
0.029586278 0.15011866 0.028037256 0.04127723 -0.1719743 -0.046522047 -0.09680622 0.15502219
00000000: fada 1ebe 5dfc 1e3e 5708 b4bd 70c0 cfbc
00000010: 478a c2bd 08b1 ba3d 9e11 493b 9263 143e
00000020: 6c6c 7ebd e285 abbd f7e3 83bd 98aa 223d
00000030: ae36 e23d 8212 03be c85b 623d 836e 253d
00000040: 472c dbbd 7d53 a3bd 9147 d8bd 2e0f 0c3e
00000050: 7a7f 913d a45d 4b3d defd e1bd 6640 903d
00000060: 82f9 1c3e 0e7c efbd c46e 9a3d a68c 8bbd
00000070: b7f4 743c 0953 a2bd c987 8c3d 8fdf 593b
00000080: 3171 d73d a81f b0bd 0213 b83d 22c1 0b3e
00000090: 2246 83bd baa2 39bd 3f32 cd3d 8e9d 633d
000000a0: 6790 1dbe cc3b 8b3d 25ff 05be 7e49 c4bd
000000b0: 1036 52bd cf9d d0bc 9e37 babd 6493 a63d
000000c0: 5780 ba3d 0682 a0bd d403 963d 9916 493d
000000d0: a870 8b3d 962b 6a3d 8e93 1fbe 87bc 483c
000000e0: ec5e f23c b5b8 193e 63ae e53c 5012 293d
000000f0: 081a 30be e78d 3ebd 5742 c6bd 23be 1e3e

weight f4 [64, 17]
0.28615335 -0.055597693 0.2101803 0.13857232 0.16256112 0.21132573 0.023634959 0.14622116
0.17780532 -0.078160286 0.08281445 0.032334063 -0.17563798 0.13856496 0.062478304 0.02659069
0.1586617 -0.2331757 0.17399924 0.047302786 0.19414502 0.15459669 -0.03665941 0.19566917
-0.068948336 0.21086076 -0.018819744 0.19183868 0.23146036 0.13231976 0.19316016 -0.18288617
0.09997193 -0.19934404 0.12132322 -0.21384388 -0.09099826 0.22265935 0.14139672 0.014434076
-0.17665723 0.09641602 0.19423752 0.12714136 -0.10099761 0.08518209 -0.08383561 0.01521571
0.06028122 -0.15246044 -0.10361649 -0.05644842 0.03939484 -0.22946677 -0.23219875 0.085373364
0.14048536 -0.1999532 0.18483517 -0.0020981787 -0.2226542 0.06621181 -0.09516978 0.10071271
0.07557463 0.13329741 0.015993152 -0.04222511 0.26014218 -0.16669947 0.1328551 0.02224983
-0.17718288 0.18854246 -0.03713078 -0.17917964 0.033624995 0.20866333 -0.077772625 0.20805213
0.030332465 -0.11099746 0.16620818 0.011816263 0.07174185 -0.28769872 0.023756038 0.19762594
0.07014604 -0.050714344 0.08985912 -0.07090971 0.15226285 -0.09489198 -0.12603416 0.14082028
0.07389579 0.0873754 -0.02190366 -0.124033585 0.25243333 -0.058201488 -0.25811648 0.03839597
0.013083293 0.20940553 -0.058371536 -0.1480926 -0.082968235 0.18999511 0.052441716 0.029125322
-0.05598845 -0.023362933 -0.16892794 0.08067921 -0.070456885 0.05447562 0.076687306 -0.2669569
0.051381305 -0.017387094 0.027212292 -0.07167519 0.025705049 -0.06275721 -0.05158371 -0.1518419
0.119151495 0.2000995 -0.19427916 -0.16073276 0.023592452 -0.10250138 0.20629233 0.20546213
-0.22424671 -0.13190807 0.07592122 -0.13483171 0.19590867 0.23334554 0.19953506 0.050365847
-0.049399327 -0.0043999054 0.034061488 0.077740565 -0.00028568934 0.0021323506 -0.12692462 -0.13153014
-0.024481768 0.24415442 0.106186405 -0.045126796 0.23376112 -0.107661515 0.07946355 -0.051943168
0.080675825 -0.14169954 -0.2193814 -0.12563214 0.18768293 0.1578807 -0.22801511 -0.12826695
-0.1855431 -0.13376167 0.16255955 0.14437945 0.16758181 -0.11002935 0.15333474 -0.18006873
0.09620213 0.12419325 0.107761614 -0.19073024 0.08683973 -0.22125998 -0.10967797 -0.0016634701
0.10634847 0.26380306 0.10749353 -0.013968166 -0.20543171 -0.022809163 0.048823576 -0.09178797
-0.04093686 -0.25623012 0.19781707 -0.11410764 -0.02142283 -0.10097753 0.142111 0.14909077
0.09818926 0.19260842 -0.109729074 -0.036443092 0.11542632 -0.031069534 -0.13257724 0.057590924
-0.07716551 -0.052471127 0.14173463 -0.17170817 -0.13679583 0.042446773 -0.0539966 0.19896875
-0.098342605 -0.2182903 -0.1464818 0.19513378 -0.09387738 -0.15756994 0.123927124 0.020600663
-0.0016553377 0.037839074 -0.057754103 -0.06565879 -0.13663124 0.038843554 0.16779663 -0.2059893
-0.21393086 -0.16391616 -0.039997227 -0.1516361 0.118062735 -0.21333204 0.13438912 0.09283857
0.22558293 0.05481958 -0.12619075 -0.22147727 0.19887616 -0.14949386 0.25944766 -0.18375944
-0.0955837 0.0046373038 0.031620678 -0.07561765 0.17115365 -0.20460354 -0.07433655 0.11275205
00000000: b182 923e 68ba 63bd 8139 573e e7e5 0d3e
00000010: 6c76 263e c665 583e 1a9e c13c 00bb 153e
00000020: 9912 363e 8012 a0bd 9f9a a93d b970 043d
00000030: 71da 33be f9e3 0d3e 40e9 7f3d b8d4 d93c
00000040: 3678 223e 9cc5 6ebe db2c 323e 91c0 413d
00000050: f4cd 463e 984e 1e3e 2d28 16bd 805d 483e
00000060: c934 8dbd e2eb 573e dd2b 9abc 5c71 443e
00000070: f203 6d3e d57e 073e c7cb 453e 8346 3bbe
00000080: 15be cc3d d820 4cbe 4f78 f83d e4f9 5abe
00000090: 4c5d babd d000 643e 4dca 103e e77c 6c3c
000000a0: a2e5 34be c375 c53d 33e6 463e 5831 023e
000000b0: d6d7 cebd f373 ae3d 01b2 abbd 504b 793c
000000c0: 71e9 763d 971e 1cbe e234 d4bd 7536 67bd
000000d0: 7c5c 213d 56f9 6abe 82c5 6dbe 3bd8 ae3d
000000e0: 65db 0f3e 88c0 4cbe 6e45 3d3e 9981 09bb
000000f0: 76ff 63be 0f9a 873d 60e8 c2bd 7742 ce3d
00000100: dfc6 9a3d 1e7f 083e 1204 833c 3df4 2cbd
00000110: 5b31 853e 44b3 2abe 2b0b 083e 4745 b63c
00000120: 6e6f 35be 4611 413e 7216 18bd de7a 37be
00000130: 5dba 093d d7ab 553e 4147 9fbd 9e0b 553e
00000140: ca7b f83c a352 e3bd 7a32 2a3e 0099 413c
00000150: 64ed 923d 3f4d 93be 069c c23c 745e 4a3e
00000160: baa8 8f3d d8b9 4fbd 0f08 b83d 1c39 91bd
00000170: cbea 1b3e ba56 c2bd 190f 01be 3133 103e
00000180: ad56 973d e0f1 b23d 4e6f b3bc 5205 febd
00000190: f13e 813e af64 6ebd d827 84be 1845 1d3d
000001a0: 4f5b 563c 676e 563e fe16 6fbd 96a5 17be
000001b0: 40eb a9bd 148e 423e 20cd 563d 3a98 ee3c
000001c0: 2554 65bd 9f63 bfbc 72fb 2cbe 243b a53d
000001d0: b34b 90bd d421 5f3d 3c0e 9d3d 93ae 88be
000001e0: 3475 523d 616f 8ebc 50ec de3c 71ca 92bd
000001f0: 6593 d23c da86 80bd 7149 53bd 717c 1bbe
00000200: b305 f43d e2e6 4c3e 1ef1 46be 2197 24be
00000210: f544 c13c 3eec d1bd 4c3e 533e aa64 523e
00000220: eea0 65be e912 07be 967c 9b3d 5311 0abe
00000230: 489c 483e 22f2 6e3e eb52 4c3e 6b4c 4e3d
00000240: f356 4abd 152d 90bb 0f84 0b3d 7236 9f3d
00000250: 93c8 95b9 e8be 0b3b 87f8 01be d6af 06be
00000260: fd8d c8bc 9e03 7a3e 4278 d93d e0d6 38bd
00000270: 135f 6f3e a47d dcbd c9bd a23d 5cc2 54bd
00000280: 5e39 a53d af19 11be 85a5 60be b6a5 00be
00000290: f42f 403e 7aab 213e cb7c 69be 6958 03be
000002a0: 03ff 3dbe d2f8 08be 0376 263e 35d8 133e
000002b0: 919a 2b3e 1157 e1bd c803 1d3e f063 38be
000002c0: 9f05 c53d 0859 fe3d 1fb2 dc3d ca4e 43be
000002d0: 07d9 b13d fa91 62be d89e e0bd cb08 daba
000002e0: 3acd d93d 3211 873e 9125 dc3d bcda 64bc
000002f0: b15c 52be 48da babc 3bfb 473d 55fb bbbd
00000300: 69ad 27bd 9830 83be 8f90 4a3e 44b1 e9bd
00000310: ee7e afbc 4fcd cebd 8c85 113e 40ab 183e
00000320: 7317 c93d 243b 453e a3b9 e0bd 5a45 15bd
00000330: a264 ec3d 8985 febc 54c2 07be 76e4 6b3d
00000340: f308 9ebd f7eb 56bd e222 113e 44d4 2fbe
00000350: 3514 0cbe abdc 2d3d 8a2b 5dbd 77be 4b3e
00000360: d967 c9bd 7e87 5fbe 53ff 15be 26d1 473e
00000370: c942 c0bd 045a 21be 81cd fd3d b9c2 a83c
00000380: ebf7 d8ba 25fd 1a3d 918f 6cbd 1e78 86bd
00000390: 0fe9 0bbe 6b1a 1f3d e1d2 2b3e dcee 52be
000003a0: b110 5bbe a3d9 27be 22d4 23bd 7e46 1bbe
000003b0: e0ca f13d b773 5abe 4d9d 093e 2622 be3d
000003c0: 36ff 663e 7f8a 603d 2638 01be f0ca 62be
000003d0: 31a6 4b3e eb14 19be 53d6 843e 6f2b 3cbe
000003e0: 63c1 c3bd 86f4 973b af84 013d 6ddd 9abd
000003f0: e742 2f3e 9783 51be c33d 98bd 8cea e63d

bias f4 [64]
0.25585032 0.10011249 -0.03680559 -0.11032803 0.18184355 0.1950723 0.10095147 0.1675359
0.114780776 0.15548399 0.26760378 -0.095089905 0.2295537 -0.19167835 0.11583931 -0.10422687
-0.17170766 0.24194069 0.065997556 0.180472 0.25606316 0.22864047 0.054217134 0.26083338
0.07950161 0.13897276 0.17243014 0.20878315 0.11504915 -0.23426774 -0.2364503 0.17910346
0.12331883 0.0182426 0.13208798 -0.19334127 0.25888833 0.1535576 -0.053954814 -0.03561065
-0.21641119 0.1513019 -0.026265766 -0.08198988 -0.14893882 0.18461016 0.12807663 -0.1294543
0.09988709 0.17801392 0.23727678 0.069440074 -0.10436387 -0.18241414 0.066998556 0.0707279
0.013523292 0.027596576 0.18982239 0.15868953 0.2263325 -0.12138337 -0.171503 0.13251798
00000000: d0fe 823e c707 cd3d 75c1 16bd aaf3 e1bd
00000010: 3235 3a3e 08c1 473e a5bf ce3d 888e 2b3e
00000020: 2f12 eb3d 3237 1f3e 5d03 893e 7fbe c2bd
00000030: 2010 6b3e 5447 44be 293d ed3d e674 d5bd
00000040: 22d4 2fbe 4dbf 773e ba29 873d a7cd 383e
00000050: b61a 833e ba20 6a3e c912 5e3d f48b 853e
00000060: bdd1 a23d e04e 0e3e 8791 303e 40cb 553e
00000070: e49e eb3d e2e3 6fbe 0720 72be e666 373e
00000080: 958e fc3d 8171 953c 1242 073e 41fb 45be
00000090: 038d 843e 343e 1d3e b9ff 5cbd 79dc 11bd
000000a0: e59a 5dbe e3ee 1a3e 4e2b d7bc 4fea a7bd
000000b0: 6b83 18be 720a 3d3e 8526 033e ab8f 04be
000000c0: 9a91 cc3d 4849 363e aff8 723e 9936 8e3d
000000d0: babc d5bd c6ca 3abe 8a36 893d cad9 903d
000000e0: cc90 5d3c 3712 e23c cd60 423e 827f 223e
000000f0: b5c3 673e d897 f8bd 7c9e 2fbe cbb2 073e

weight f4 [64, 64]
-0.08938139 -0.024529455 0.013187602 0.07812953 -0.066205844 0.1073298 -0.01245276 -0.03326029
0.016279893 0.028229976 0.092217736 -0.031703085 0.007998667 -0.046735287 -0.05660028 -0.10482784
-0.059050046 -0.11036887 -0.024965502 0.07271805 -0.12500852 -0.05713089 0.066685244 -0.021327227
0.040268317 -0.060773604 -0.056201186 -0.13168101 0.102067344 -0.03499807 0.021310631 0.05625531
0.0035754368 -0.07480116 0.082289614 0.038806513 0.05420314 -0.13136227 -0.0024409539 -0.010683508
-0.09974352 0.068558775 0.07238209 0.023804745 0.029729607 -0.12109159 0.027962195 -0.053247474
-0.02002301 -0.028859401 -0.06047964 -0.120255366 0.020227706 -0.040065475 -0.036505748 -0.030523546
0.033158164 -0.064956866 0.10548991 -0.106745 -0.08996066 -0.12763703 0.07827322 -0.053090345
0.077635124 0.07385277 0.05797805 0.12364748 -0.022324475 0.03043346 0.03609626 0.12072265
0.036368076 -0.1304159 0.056559052 -0.11382593 -0.028502775 -0.07610788 -0.0028648202 0.00076892425
-0.034956492 0.043529354 -0.1293332 -0.036833975 0.109334335 0.06316208 -0.1285431 -0.027443988
-0.015092762 -0.08717821 0.09710108 0.09920836 0.10986264 -0.02938433 -0.047948737 -0.029000932
0.09345124 -0.07387667 -0.07139185 -0.011675778 0.048458584 -0.10568491 0.009247251 0.0765338
-0.07356718 -0.018170215 -0.020384545 0.1655871 -0.11419906 -0.08073511 0.014584243 0.0063533103
-0.13313793 0.05229029 -0.021796262 0.07010087 -0.050274987 -0.07800622 0.1343934 0.115935214
0.15305702 0.027201511 -0.03681213 0.043465797 0.109532975 -0.020892354 0.06418296 0.07850577
0.1396309 0.08601148 0.14816427 -0.033054404 0.16167985 -0.14011164 0.07032964 -0.11730708
0.05965265 0.15280578 0.0730712 0.026277216 0.114401564 -0.10084732 0.021211982 0.09196375
0.15022376 0.08144401 0.023738788 -0.1354337 0.08389878 0.12633781 0.06189203 0.03414805
-0.10939304 -0.06876334 0.059408553 0.07215335 -0.056279663 0.074496046 -0.0013724661 0.018118545
0.0864451 0.07478379 0.18296704 -0.056285013 0.009512368 0.008456114 -0.15227598 -0.005094929
-0.00836667 0.1251654 0.08264129 -0.05646571 0.10835012 -0.04818711 -0.03525048 -0.013312824
0.08289982 0.010572531 0.05050381 -0.046076674 -0.042262048 -0.037278444 -0.14412247 -0.015382205
0.08411586 0.005729979 0.036356386 -0.027287591 -0.017376166 0.11811011 -0.029412556 -0.056258116
0.039796874 0.039875183 0.069861256 0.09290803 -0.07641246 0.13954103 -0.0044998014 0.05913383
0.0836349 0.08052168 -0.14252736 -0.03869368 0.05505235 -0.022693919 0.012951653 0.008172728
0.019937929 0.05081553 -0.037824623 0.010903583 0.049922224 -0.07128779 0.08452779 -0.03215717
0.13611908 0.051411897 0.031719785 0.056433644 0.13699004 -0.054446705 0.021145212 0.09658293
0.06551844 -0.020761425 -0.12332571 -0.05424435 -0.12244606 0.02257773 0.06273567 0.06701621
0.10603959 0.10801423 -0.0025021187 -0.047376137 0.083522394 -0.07882923 0.03322218 -0.10268021
-0.06833626 0.028315473 0.11096126 -0.08385371 -0.07791348 0.007240489 0.11602103 -0.09340742
0.03423631 0.0638322 -0.046650566 0.032931626 -0.06883433 0.055231515 0.018058192 0.05154126
00000000: 970d b7bd fff1 c8bc d010 583c 6002 a03d
00000010: ee96 87bd bacf db3d a906 4cbc f13b 08bd
00000020: 695d 853c 8d42 e73c a7dc bc3d 18db 01bd
00000030: d70c 033c 806d 3fbd b2d5 67bd fbaf d6bd
00000040: 76de 71bd 1309 e2bd 7484 ccbc 33ed 943d
00000050: 3c02 00be 1502 6abd 4692 883d 70b6 aebc
00000060: 64f0 243d beed 78bd 3733 66bd 63d7 06be
00000070: af08 d13d 235a 0fbd a293 ae3c f86b 663d
00000080: e051 6a3b 5a31 99bd 7587 a83d 94f3 1e3d
00000090: 1d04 5e3d d583 06be 69f8 1fbb e109 2fbc
000000a0: 5546 ccbd 8b68 8c3d 103d 943d 2b02 c33c
000000b0: 818b f33c defe f7bd f910 e53c 061a 5abd
000000c0: 4c07 a4bc 8d6a ecbc 80b9 77bd 7248 f6bd
000000d0: 93b4 a53c b21b 24bd 0d87 15bd 840c fabc
000000e0: dbd0 073d 1b08 85bd 180b d83d 1f9d dabd
000000f0: 4b3d b8bd 48b3 02be b64d a03d 4375 59bd
00000100: 2aff 9e3d 1f40 973d 647a 6d3d e43a fd3d
00000110: d1e1 b6bc 974f f93c acd9 133d 703d f73d
00000120: b1f6 143d bf8b 05be 77aa 673d 921d e9bd
00000130: a77e e9bc 73de 9bbd b5bf 3bbb a291 493a
00000140: 8a2e 0fbd d64b 323d ec6f 04be 39df 16bd
00000150: aeea df3d 1f5b 813d cda0 03be 37d2 e0bc
00000160: a247 77bc 7d8a b2bd eedc c63d c12d cb3d
00000170: aaff e03d 68b7 f0bc e565 44bd 5d93 edbc
00000180: 5d63 bf3d a74c 97bd e435 92bd c34b 3fbc
00000190: 827c 463d 5571 d8bd c881 173c c1bd 9c3d
000001a0: 64aa 96bd b4d9 94bc 7dfd a6bc aa8f 293e
000001b0: 32e1 e9bd 7358 a5bd c0f2 6e3c 6e2f d03b
000001c0: 4f55 08be 582e 563d 138e b2bc 0c91 8f3d
000001d0: 25ed 4dbd bac1 9fbd 6c9e 093e 716f ed3d
000001e0: fbba 1c3e b4d5 de3c 51c8 16bd 3109 323d
000001f0: d352 e03d 7126 abbc 5b72 833d a2c7 a03d
00000200: 67fb 0e3e c926 b03d 60b8 173e 0e64 07bd
00000210: 678f 253e 6d79 0fbe fc08 903d b23e f0bd
00000220: 5656 743d 1e79 1c3e 5aa6 953d 5143 d73c
00000230: 5e4b ea3d 0a89 cebd c0c4 ad3c 7e57 bc3d
00000240: 42d4 193e 1ecc a63d d977 c23c 22af 0abe
00000250: 20d3 ab3d b35e 013e 7f82 7d3d d3de 0b3d
00000260: 7509 e0bd cbd3 8cbd 6256 733d 23c5 933d
00000270: 8185 66bd 6291 983d 52e4 b3ba 586d 943c
00000280: 210a b13d 3e28 993d b65b 3b3e 1d8b 66bd
00000290: c3d9 1b3c 838b 0a3c 3cee 1bbe 5df3 a6bb
000002a0: 5c14 09bc 5c2b 003e d63f a93d 9748 67bd
000002b0: abe6 dd3d d95f 45bd cf62 10bd 081e 5abc
000002c0: 61c7 a93d 6938 2d3c 15dd 4e3d e5ba 3cbd
000002d0: f81a 2dbd 48b1 18bd d794 13be a505 7cbc
000002e0: f044 ac3d 8cc2 bb3b 6fea 143d 3a8a dfbc
000002f0: 7658 8ebc b7e3 f13d 9af2 f0bc e96e 66bd
00000300: 0c02 233d 2954 233d 6b13 8f3d 9146 be3d
00000310: 237e 9cbd d8e3 0e3e 1273 93bb 5136 723d
00000320: c648 ab3d 8de8 a43d b1f2 11be 447d 1ebd
00000330: 937e 613d 99e8 b9bc 2c33 543c e8e6 053c
00000340: de54 a33c f223 503d feed 1abd f1a4 323c
00000350: 3f7b 4c3d 55ff 91bd e81c ad3d 3db7 03bd
00000360: cd62 0b3e 4895 523d 9bec 013d f726 673d
00000370: 1e47 0c3e 8203 5fbd b938 ad3c 45cd c53d
00000380: 882e 863d dd13 aabc 3192 fcbd 532f 5ebd
00000390: 00c5 fabd eef4 b83c 8f7b 803d cb3f 893d
000003a0: 492b d93d 9136 dd3d 96fa 23bb 7b0d 42bd
000003b0: ca0d ab3d 3871 a1bd fb13 083d 004a d2bd
000003c0: e2f3 8bbd daf5 e73c a83f e33d 7ebb abbd
000003d0: 1a91 9fbd a041 ed3b 6f9c ed3d 644c bfbd
000003e0: 5f3b 0c3d 75ba 823d aa14 3fbd 50e3 063d
000003f0: 03f9 8cbd 713a 623d c6ee 933c ee1c 533d

bias f4 [64]
-0.10268662 0.010182877 0.0011270155 -0.0911931 0.0029422177 0.0794121 0.053721514 0.14226829
0.121083565 -0.1255733 -0.042330474 -0.13781796 -0.064383395 0.031000353 0.019432964 -0.118964575
0.1162545 0.063943 0.08374122 0.1185278 -0.060732394 0.008367867 0.12525208 -0.052144732
0.06447086 -0.024444193 0.05691301 -0.020759376 0.111299016 0.026406737 0.07656092 0.017049924
-0.05046179 0.04005569 0.14446665 -0.079597436 -0.08952739 -0.06471391 0.03184205 0.020951893
0.008435201 -0.0029991183 -0.038875077 0.118109085 -0.11136964 0.098616496 -0.087337285 0.0041631274
-0.09932618 0.017663263 -0.117378555 0.03685581 -0.021944981 -0.062282983 0.09689937 0.05353274
-0.06080848 0.014316016 0.10959248 -0.016137816 -0.029554939 0.09757668 0.09335868 -0.11676647
00000000: 5d4d d2bd 15d6 263c 5db8 933a 73c3 babd
00000010: 39d2 403b d0a2 a23d 170b 5c3d c7ae 113e
00000020: a9fa f73d 4a96 00be b862 2dbd 2720 0dbe
00000030: 71db 83bd 74f4 fd3c e131 9f3c b3a3 f3bd
00000040: d716 ee3d 8cf4 823d 8480 ab3d b4be f23d
00000050: 88c2 78bd 6119 093c 1542 003e b795 55bd
00000060: 4c09 843d 303f c8bc 9e1d 693d 910f aabc
00000070: bdf0 e33d f152 d83c f9cb 9c3d 48ac 8b3c
00000080: 06b1 4ebd 6f11 243d 11ef 133e fb03 a3bd
00000090: 235a b7bd ba88 84bd cf6c 023d 4ea3 ab3c
000000a0: cc33 0a3c db8c 44bb 793b 1fbd 2de3 f13d
000000b0: c415 e4bd 72f7 c93d e4dd b2bd d86a 883b
000000c0: 866b cbbd 8cb2 903c 2b64 f0bd 1ef6 163d
000000d0: f6c5 b3bc 711c 7fbd 2d73 c63d 2545 5b3d
000000e0: 5012 79bd b98d 6a3c 0672 e03d 7433 84bc
000000f0: 331d f2bc 48d6 c73d d632 bf3d 4223 efbd

weight f4 [1, 64]
0.084822364 -0.11424689 0.105642065 -0.021564027 -0.09682745 0.16037439 -0.09018779 0.16856976
-0.09644293 -0.046794318 -0.07059516 0.0005975913 0.057059582 -0.1489688 0.056115754 0.0022132627
-0.1030807 -0.15582658 -0.10944865 -0.019887276 -0.109984174 0.09667732 -0.10630562 0.071260095
-0.1013425 0.049070913 -0.15376176 0.117791496 -0.057300482 -0.06703135 -0.0014704834 -0.059081636
0.0384925 0.12806681 -0.049166862 0.10146185 -0.114484325 0.14862789 0.031734608 0.12203995
-0.040367328 0.096731275 -0.041371677 -0.0018104727 0.048981696 -0.13321981 -0.08621639 -0.092487864
-0.092111096 -0.08647871 -0.06971023 0.08031857 0.19470006 -0.037249453 -0.14367749 -0.04970192
-4.061319e-05 -0.07495095 0.07373355 -0.08170621 0.05100403 0.19839388 -0.10417125 -0.03642303
00000000: 59b7 ad3d 46fa e9bd de5a d83d 0ba7 b0bc
00000010: 784d c6bd 2f39 243e 60b4 b8bd 8d9d 2c3e
00000020: df83 c5bd 66ab 3fbd 3294 90bd aca7 1c3a
00000030: 4fb7 693d 478b 18be a2d9 653d 630c 113b
00000040: f91b d3bd 0191 1fbe 9d26 e0bd a4ea a2bc
00000050: 623f e1bd c2fe c53d c3b6 d9bd d0f0 913d
00000060: a88c cfbd 95fe 483d b973 1dbe ab3c f13d
00000070: e9b3 6abd bc47 89bd 3cbd c0ba 96ff 71bd
00000080: 50aa 1d3d f223 033e 3163 49bd 3bcb cf3d
00000090: c276 eabd e931 183e 26fc 013d 15f0 f93d
000000a0: 3658 25bd 0c1b c63d 5975 29bd 624d edba
000000b0: 08a1 483d c66a 08be 3892 b0bd 476a bdbd
000000c0: bea4 bcbd c01b b1bd 3dc4 8ebd 107e a43d
000000d0: 745f 473e e292 18bd 3120 13be 3e94 4bbd
000000e0: 1558 2ab8 e27f 99bd 9e01 973d 9655 a7bd
000000f0: 9ae9 503d c427 4b3e bc57 d5bd 5130 15bd

weight f4 [64, 17]
0.019662717 0.048239782 0.01300971 -0.22992209 0.21324359 0.057981815 -0.03125997 -0.20172739
0.17115183 0.24244657 -0.20366651 0.058599647 -0.16790245 0.15322296 0.105493344 -0.07532508
-0.032401025 0.14926225 -0.13576105 0.09481984 0.03981407 0.18617351 0.117063195 -0.17342003
0.22192706 0.18722148 0.039598346 0.22559251 0.1209513 -0.11883377 0.044909146 0.17042418
-0.123071045 -0.038560875 -0.051342204 0.2292832 -0.113078006 0.07998919 -0.177998 -0.0025098915
0.080060706 -0.10207584 0.028179264 0.20958133 -0.077321395 -0.062336534 0.16770606 0.07702799
0.25336578 -0.15854113 -0.22021851 0.23416083 0.09424132 -0.11172034 0.13978073 -0.17851031
0.114946656 0.13455804 -0.17891718 -0.1245492 -0.039440405 -0.03325873 0.14431976 0.19307375
-0.0841713 -0.24768735 0.016885983 -0.05147461 0.22577618 0.14342579 -0.023104208 0.076881304
0.1668923 -0.03137068 0.06450667 0.03230242 -0.16665938 -0.05757527 -0.06627398 -0.18442401
0.21872011 -0.18868814 -0.13495277 0.21036772 -0.06205305 -0.089761995 -0.057683066 -0.16264682
0.21080688 -0.17635639 0.11729038 0.23985952 -0.10464754 0.16900697 -0.04852282 -0.20701268
0.21321116 0.06434057 0.057248075 -0.12217786 -0.12620299 0.0052289083 0.26536343 -0.052307203
0.011630692 0.16898388 -0.1006381 0.13297234 0.04040335 -0.03554308 -0.10815397 0.1829426
-0.011790568 -0.15004644 0.15615067 0.055441782 -0.06247614 0.21279217 0.13220449 0.12840381
-0.21127582 -0.024613164 -0.010205419 -0.13076329 0.02441801 0.17837141 0.19841464 0.123916045
-0.020919768 -0.06696942 -0.2022728 0.22729683 -0.110995494 -0.23066609 0.006110688 -0.09645743
0.09896144 0.19920237 -0.077632 0.120577075 -0.22489722 0.09366479 -0.16860849 -0.09414044
-0.048084 0.0136795975 -0.19621913 -0.046617795 -0.13444269 -0.24937928 0.094189644 0.18529552
-0.11624388 -0.0635648 -0.10786087 0.22392792 0.11504886 0.19067858 -0.13073792 -0.09868209
0.090931974 -0.032222554 0.25294998 -0.19580668 -0.08839858 -0.09043951 -0.034428164 -0.12408703
-0.12617202 0.058929805 0.2425998 -0.13437393 -0.10973491 0.14305054 0.07853576 -0.17020191
0.21324468 0.26400185 0.1250018 -0.23448674 0.122571714 -0.22973725 0.12259104 -0.0064996704
-0.027117103 -0.037200473 -0.099460445 -0.118680194 0.096754685 0.12497249 0.086249344 -0.05527089
0.0028536585 -0.1208836 -0.18747142 -0.16551761 0.0359294 0.056046974 -0.23064941 0.1725824
0.21930173 0.16191596 -0.026010003 -0.23534602 -0.15624234 0.23284006 0.21117826 -0.08429737
-0.0011728328 0.059643544 0.01052296 -0.18214498 -0.15360245 -0.15481369 0.054558266 -0.24639791
-0.07335104 -0.015583998 0.2001426 -0.22299041 0.14320599 0.19935527 -0.1707697 -0.211558
0.14267394 0.065445535 0.17393707 0.010897423 0.14848582 -0.12179338 -0.07181932 0.1274232
0.09017628 0.21554379 -0.0034979044 -0.11736599 0.08019406 -0.0871723 0.02841185 -0.23839048
-0.09093354 -0.2240363 0.02257675 0.17797734 0.1486141 0.15572427 0.09554325 -0.17412463
0.015677277 0.015916834 0.0007543454 0.15357292 0.06495671 0.19789922 0.16184126 0.2920284
00000000: b513 a13c 1497 453d ae26 553c b270 6bbe
00000010: 875c 5a3e 577e 6d3d 740a 00bd a091 4ebe
00000020: 6d42 2f3e ea43 783e f48d 50be 2f06 703d
00000030: 9fee 2bbe 7be6 1c3e e50c d83d 0944 9abd
00000040: f0b6 04bd 34d8 183e f204 0bbe e730 c23d
00000050: 1414 233d 45a4 3e3e d4be ef3d 0595 31be
00000060: d940 633e fdb6 3f3e e031 223d b901 673e
00000070: 51b5 f73d 1f5f f3bd a7f2 373d ad83 2e3e
00000080: ac0c fcbd 02f2 1dbd 344c 52bd 37c9 6a3e
00000090: 7195 e7bd 5fd1 a33d 1c45 36be fe7c 24bb
000000a0: def6 a33d 230d d1bd 33d8 e63c 7d9c 563e
000000b0: ae5a 9ebd 9854 7fbd 23bb 2b3e dac0 9d3d
000000c0: 29b9 813e 9b58 22be f680 61be dbc7 6f3e
000000d0: 9801 c13d a2cd e4bd ae22 0f3e 68cb 36be
000000e0: 2769 eb3d 95c9 093e 1136 37be a713 ffbd
000000f0: 438c 21bd 4e3a 08bd 8fc8 133e 20b5 453e
00000100: 0162 acbd c1a1 7dbe 7954 8a3c 0ad7 52bd
00000110: df31 673e 36de 123e 0945 bdbc f273 9d3d
00000120: d1e5 2a3e 8b7e 00bd 131c 843d 8b4f 043d
00000130: c2a8 2abe 0cd4 6bbd a7ba 87bd a6d9 3cbe
00000140: 2af8 5f3e 7737 41be 0f31 0abe a36a 573e
00000150: 572b 7ebd 23d5 b7bd 1445 6cbd e38c 26be
00000160: c2dd 573e c596 34be f035 f03d bc9d 753e
00000170: 7351 d6bd 2a10 2d3e ddbf 46bd 22fb 53be
00000180: 0754 5a3e fdc4 833d f57c 6a3d 6338 fabd
00000190: 5b3b 01be 4357 ab3b b7dd 873e 1440 56bd
000001a0: a88e 3e3c 1c0a 2d3e 591b cebd e729 083e
000001b0: fc7d 253d 9f95 11bd d47f ddbd 4e55 3b3e
000001c0: 3a2d 41bc c6a5 19be f6e5 1f3e ec16 633d
000001d0: fbe6 7fbd 31e6 593e 9d60 073e 4a7c 033e
000001e0: b058 58be 8ca1 c9bc a134 27bc d0e6 05be
000001f0: 4708 c83c ffa6 363e 352d 4b3e b2c7 fd3d
00000200: ef5f abbc 4327 89bd 9a20 4fbe 80c0 683e
00000210: 9b51 e3bd bb33 6cbe 2b3c c83b 798b c5bd
00000220: 4cac ca3d b5fb 4b3e 87fd 9ebd 1df1 f63d
00000230: 754b 66be 53d3 bf3d b4a7 2cbe b4cc c0bd
00000240: baf3 44bd 6420 603c abed 48be 4df2 3ebd
00000250: 58ab 09be 485d 7fbe 80e6 c03d 1cbe 3d3e
00000260: 4511 eebd 432e 82bd 29e6 dcbd 5c4d 653e
00000270: bd9e eb3d 3f41 433e 29e0 05be d619 cabd
00000280: 8b3a ba3d ccfb 03bd a982 813e 8c81 48be
00000290: 510a b5bd 5a38 b9bd 8c04 0dbd 5721 febd
000002a0: 3d33 01be 6160 713d 156c 783e 5299 09be
000002b0: b2bc e0bd d77b 123e 5bd7 a03d 6949 2ebe
000002c0: d05c 5a3e 402b 873e 7900 003e 4b1d 70be
000002d0: e106 fb3d 3e40 6bbe 0311 fb3d 30fb d4bb
000002e0: b024 debc 865f 18bd ebb1 cbbd 9a0e f3bd
000002f0: 5227 c63d 94f1 ff3d 7fa3 b03d bb63 62bd
00000300: 7204 3b3b d291 f7bd 82f8 3fbe 737d 29be
00000310: b52a 133d 8391 653d 5c2f 6cbe 71b9 303e
00000320: a290 603e 4ccd 253e ee12 d5bc 8cfe 70be
00000330: fefd 1fbe a06d 6e3e 1d3f 583e 19a4 acbd
00000340: bdb9 99ba ca4c 743d 7e68 2c3c 3784 3abe
00000350: f649 1dbe 7b87 1ebe 7d78 5f3d bc4f 7cbe
00000360: 1239 96bd 0654 7fbc 2ff2 4c3e 9957 64be
00000370: 97a4 123e ca23 4c3e 41de 2ebe a9a2 58be
00000380: 1e19 123e 4f08 863d 8f1c 323e 1b8b 323c
00000390: ab0c 183e cf6e f9bd 0216 93bd 3a7b 023e
000003a0: 57ae b83d 83b7 5c3e 193d 65bb 955d f0bd
000003b0: c93c a43d 6487 b2bd f8bf e83c a21c 74be
000003c0: 5d3b babd c669 65be e0f2 b83c b13f 363e
000003d0: 4b2e 183e 2f76 1f3e 2eac c33d ba4d 32be
000003e0: a26d 803c 0564 823c 43bf 453a 3842 1d3e
000003f0: 0608 853d 18a6 4a3e b7b9 253e bf84 953e

bias f4 [64]
-0.008685424 0.118107826 0.076665744 0.2637317 0.053988732 -0.045142207 0.047460724 0.030375026
-0.09520492 -0.0007261648 -0.09394036 0.15297623 0.14871317 -0.07489142 -0.20088103 -0.0106690405
-0.019385234 -0.0049475944 0.111600004 0.024920944 -0.12300996 0.20040612 -0.059551977 -0.14059868
0.17295471 -0.21732931 0.0720127 -0.08161377 0.16680299 -0.2259596 0.22928604 -0.20381284
0.15740237 -0.17022985 -0.006441383 0.023881229 -0.037331853 0.17056629 -0.037104618 0.26606905
0.001148875 0.2185687 0.1917575 0.046074063 0.27047354 0.1884853 -0.13514546 0.13188086
0.13899247 0.21439204 -0.117606916 0.18682574 0.02280465 0.25161052 0.2380242 -0.19410253
-0.04883552 -0.1931363 0.014211669 0.023594769 0.062114954 -0.25506714 0.106881015 -0.09489973
00000000: 4f4d 0ebc 84e2 f13d ee02 9d3d d707 873e
00000010: 4a23 5d3d 09e7 38bd 2d66 423d 0cd5 f83c
00000020: ccfa c2bd 185c 3eba ce63 c0bd cda5 1c3e
00000030: 4448 183e ac60 99bd c2b3 4dbe 33cd 2ebc
00000040: c8cd 9ebc 6e1f a2bb 8b8e e43d 0227 cc3c
00000050: a5ec fbbd 4337 4d3e c6ec 73bd 1af9 0fbe
00000060: 0a1b 313e 938b 5ebe 657b 933d 1f25 a7bd
00000070: 67ce 2a3e f461 67be f6c9 6a3e 50b4 50be
00000080: 162e 213e bc50 2ebe 3d12 d3bb 91a2 c33c
00000090: 49e9 18bd eea8 2e3e 03fb 17bd 343a 883e
000000a0: d995 963a 79d0 5f3e 145c 443e 28b8 3c3d
000000b0: 827b 8a3e 4a02 413e 9263 0abe c70b 073e
000000c0: 0b54 0e3e 9689 5b3e e5db f0bd 3f4f 3f3e
000000d0: d1d0 ba3c 18d3 803e 9ebc 733e d0c2 46be
000000e0: c107 48bd 86c5 45be 0fd8 683c d149 c13c
000000f0: 406c 7e3d 2998 82be 6fe4 da3d ca5a c2bd

weight f4 [64, 64]
0.06341376 0.11692596 -0.047690794 0.022186795 0.064832084 -0.06513866 -0.011822979 0.013176982
0.025579747 0.064332604 0.012469141 -0.052483995 0.086764164 0.09688795 0.080721885 0.09534534
0.09280461 -0.03036633 -0.07679298 -0.0055219624 0.1113878 0.08201285 -0.07635951 -0.08340991
0.12990315 -0.04261191 -0.06109595 0.07460316 0.060270373 0.052083604 0.04426033 -0.009452171
0.13446987 0.06405894 -0.107347794 0.014717813 -0.030732393 0.12110884 0.09620894 0.1123559
0.011825556 -0.09550464 -0.091960646 -0.0069586374 -0.044337444 0.117341824 -0.06834312 -0.032087374
0.057980284 -0.081831664 0.0074682324 -0.108057246 0.1584266 0.049736932 0.10259641 -0.08047274
-0.005840944 0.08788729 0.08145096 0.03528934 -0.0037389905 -0.11569216 0.08019024 -0.08230105
0.025903748 0.00022187733 -0.028739821 -0.12610197 -0.14495377 0.12053094 -0.098705135 -0.08083029
-0.020753024 -0.04305798 -0.1276069 0.003410205 -0.0755325 -0.14367382 -0.034807537 0.038358033
0.032997645 0.15573952 0.052431367 0.06520957 0.027866594 -0.03884597 0.0102757625 0.12366587
0.12987866 -0.043939948 0.119540505 -0.09279112 0.0077252584 0.030762946 0.00079439615 -0.026544929
0.050427284 -0.011880592 0.14990209 0.07868671 0.1087418 0.054583557 -0.08633504 0.021202492
-0.02981244 0.07099926 -0.025429983 0.17473386 -0.03602091 0.026965601 0.013788545 0.06501267
0.0898186 0.14253215 0.10099539 0.1262173 -0.08581243 0.015097245 0.14883776 -0.059673436
0.17033838 0.04127159 -0.024430437 0.13957874 0.014694009 0.08943819 0.0049067787 0.12957019
-0.04975519 0.09468257 0.0883541 0.1619646 -0.0039726025 0.04152698 -0.0032623485 -0.075273
0.116620965 -0.08192293 0.019494528 0.024913726 0.060901754 -0.054339647 0.050565522 -0.079167515
0.05525944 -0.03316377 0.083655655 0.01336476 -0.09971598 -0.015653357 0.09552361 0.09505822
-0.07331309 -0.07405239 0.001155855 0.05033008 0.13958843 -0.05975783 -0.06764114 -0.059679095
0.012069826 -0.068028875 0.004746444 -0.089787 0.029692627 0.043067943 -0.03910127 0.056486122
0.12404596 -0.1517433 0.0740167 -0.041118007 0.00874446 0.13647231 -0.06121235 -0.102039255
0.013797506 -0.0298058 -0.07413948 0.006017036 0.01921278 0.11378698 -0.09934545 0.102630265
0.06325707 0.021018825 -0.06540129 -0.06950867 -0.07700403 0.08527186 0.10145558 0.03950203
-0.083513215 -0.002391003 0.042727254 0.021956855 0.102650344 0.05596037 0.1295783 -0.057279896
0.039786264 0.104224436 0.026076445 -0.072331734 -0.011118756 0.0005653822 0.06195144 -0.04387825
0.15683563 -0.05915306 -0.029242849 -0.13212746 -0.016395273 -0.07728863 0.102942295 -0.10090886
-0.08142803 0.08425401 0.002312256 0.0036404028 -0.020592306 0.103065796 -0.12020262 0.073643036
-0.058573242 0.0801916 0.08373091 -0.042364962 0.040002793 -0.0012303573 0.14789404 0.0088817505
0.103892796 0.086421 -0.044697512 0.029744755 -0.00927398 0.14692988 0.049985364 0.07934523
-0.014126559 -0.06245652 0.016312527 0.08581753 0.11427689 -0.049742706 0.029015942 0.128128
-0.04293425 0.06818267 0.011628035 -0.113100156 0.073075876 -0.10756924 0.06481681 0.12240262
00000000: 13df 813d e176 ef3d 6c57 43bd 15c1 b53c
00000010: afc6 843d 6b67 85bd 2bb5 41bc 45e4 573c
00000020: 9e8c d13c d0c0 833d 5e4b 4c3c 75f9 56bd
00000030: 69b1 b13d 316d c63d 8451 a53d 6b44 c33d
00000040: 5810 be3d cfc2 f8bc a345 9dbd 94f1 b4bb
00000050: 491f e43d 5af6 a73d 6062 9cbd d1d2 aabd
00000060: 5505 053e d389 2ebd bf3f 7abd 8bc9 983d
00000070: 11de 763d 9e55 553d 524a 353d 47dd 1abc
00000080: 78b2 093e 5531 833d 29d9 dbbd fb22 713c
00000090: 80c2 fbbc e907 f83d 3109 c53d da1a e63d
000000a0: fabf 413c f097 c3bd dd55 bcbd 4805 e4bb
000000b0: 2e9b 35bd e950 f03d 7af7 8bbd 0d6e 03bd
000000c0: bc7c 6d3d 5c97 a7bd 13b8 f43b 1e4d ddbd
000000d0: 953a 223e f4b8 4b3d 111e d23d e4ce a4bd
000000e0: 6465 bfbb 40fe b33d c3cf a63d 8e8b 103d
000000f0: da09 75bb 03f0 ecbd c83a a43d 748d a8bd
00000100: 1934 d43c bea7 6839 c66f ebbc e020 01be
00000110: c36e 14be edd8 f63d eb25 cabd 5a8a a5bd
00000120: 3f02 aabc 905d 30bd 62ab 02be bf7d 5f3b
00000130: c9b0 9abd 3b1f 13be 5992 0ebd 501d 1d3d
00000140: 8a28 073d 2e7a 1f3e 46c2 563d 988c 853d
00000150: 7c48 e43c f41c 1fbd ac5b 283c 8844 fd3d
00000160: e9fe 043e 60fa 33bd a7d1 f43d 4509 bebd
00000170: 2a24 fd3b 9302 fc3c 063f 503a c074 d9bc
00000180: d78c 4e3d d1a6 42bc ef7f 193e 7f26 a13d
00000190: 05b4 de3d 0293 5f3d 6dd0 b0bd d9b0 ad3c
000001a0: 3839 f4bc 0f68 913d 8a52 d0bc 6fed 323e
000001b0: a98a 13bd f7e6 dc3c 59e9 613c 5d25 853d
000001c0: d0f2 b73d f3f3 113e acd6 ce3d 1c3f 013e
000001d0: 6dbe afbd 6f5a 773c ed68 183e 226c 74bd
000001e0: 2f6d 2e3e 660c 293d 5722 c8bc bbed 0e3e
000001f0: 24bf 703c 5f2b b73d 0bc9 a03b 0cae 043e
00000200: 19cc 4bbd efe8 c13d fff2 b43d 0cda 253e
00000210: 9b2c 82bb 3218 2a3d 20cd 55bb bb28 9abd
00000220: f9d6 ee3d 36c7 a7bd fdb2 9f3c df17 cc3c
00000230: 1e74 793d 4093 5ebd cb1d 4f3d 9422 a2bd
00000240: b957 623d bcd6 07bd a853 ab3d def7 5a3c
00000250: e437 ccbd 783b 80bc e2a1 c33d e2ad c23d
00000260: 2c25 96bd c8a8 97bd 0f80 973a ea26 4e3d
00000270: 45f0 0e3e a0c4 74bd 7087 8abd 1172 74bd
00000280: 85c0 453c b952 8bbd 0f88 9b3b 3fe2 b7bd
00000290: f43d f33c 0368 303d a728 20bd fe5d 673d
000002a0: cf0b fe3d 9862 1bbe 1196 973d 5b6b 28bd
000002b0: ec44 0f3c 66bf 0b3e cdb9 7abd f5f9 d0bd
000002c0: ef0e 623c 4b2b f4bc 71d6 97bd 8e2a c53b
000002d0: 1f64 9d3c 2609 e93d a175 cbbd d12f d23d
000002e0: ec8c 813d ac2f ac3c 1df1 85bd 905a 8ebd
000002f0: 4ab4 9dbd 03a3 ae3d f1c7 cf3d e1cc 213d
00000300: fa08 abbd 60b2 1cbb c602 2f3d ddde b33c
00000310: 583a d23d b336 653d 2db0 043e 539e 6abd
00000320: ecf6 223d 9f73 d53d 459e d53c a922 94bd
00000330: 712b 36bc 2836 143a cbc0 7d3d aeb9 33bd
00000340: 8599 203e 7b4a 72bd b38e efbc 6c4c 07be
00000350: 614f 86bc 8049 9ebd 69d3 d23d 4ea9 cebd
00000360: bdc3 a6bd 5e8d ac3d 3889 173b d393 6e3b
00000370: 32b1 a8bc 2914 d33d cb2c f6bd 29d2 963d
00000380: 7fea 6fbd 7e3b a43d 1d7b ab3d e286 2dbd
00000390: f8d9 233d f143 a1ba 8971 173e c384 113c
000003a0: bfc5 d43d 7efd b03d bd14 37bd 46ab f33c
000003b0: e4f1 17bc c974 163e 74bd 4c3d c07f a23d
000003c0: 1573 67bc 68d2 7fbd d9a1 853c 1ac1 af3d
000003d0: 010a ea3d 02bf 4bbd d7b2 ed3c fd33 033e
000003e0: d3db 2fbd 5ba3 8b3d 8483 3e3c 0ea1 e7bd
000003f0: cea8 953d 434d dcbd adbe 843d 3aae fa3d

bias f4 [64]
-0.064534694 0.084989086 0.035630587 0.13308157 0.00826683 0.025681507 0.13103719 -0.12557998
0.13155651 -0.10357103 -0.089634605 0.14178675 -0.04576162 0.13270167 -0.07562645 -0.03361447
0.047955852 0.13050677 0.008014514 0.111246385 0.11072514 -0.00082434743 -0.0379992 -0.077254
0.035584424 -0.041570377 0.099032044 -0.055600032 0.0063318447 -0.012444109 0.027968017 -0.09201435
0.06418641 0.059816208 0.074437976 -0.117262565 0.07124194 0.03128457 0.11239926 0.027941851
-0.113404736 -0.01766704 -0.044094708 0.037653346 -0.07387466 0.029870754 -0.1295004 0.118563876
0.13270138 0.051197924 -0.049204197 0.04267498 0.027571466 0.053399235 0.06424793 -0.020185476
-0.026846282 -0.040752254 -0.043433756 0.048035588 -0.06334392 -0.02141702 0.036048617 0.10043419
00000000: c42a 84bd c20e ae3d 61f1 113d 8946 083e
00000010: 9971 073c 0662 d23c 9d2e 063e 0a98 00be
00000020: c0b6 063e 0c1d d4bd 5992 b7bd 8c30 113e
00000030: 8970 3bbd f2e2 073e 0ae2 9abd 54af 09bd
00000040: 5b6d 443d 91a3 053e 4f4f 033c 25d5 e33d
00000050: ddc3 e23d 0519 58ba 0da5 1bbd 5837 9ebd
00000060: f9c0 113d b345 2abd 50d1 ca3d dcbc 63bd
00000070: 5d7b cf3b 60e2 4bbc 2f1d e53c 0572 bcbd
00000080: 2a74 833d d701 753d f072 983d 5b27 f0bd
00000090: 4be7 913d 4024 003d 9531 e63d 4fe6 e43c
000000a0: be40 e8bd 78ba 90bc a79c 34bd 653a 1a3d
000000b0: 994b 97bd 83b3 f43c c19b 04be 9ed1 f23d
000000c0: dfe2 073e eab4 513d 578a 49bd f6cb 2e3d
000000d0: 8edd e13c 28b9 5a3d 6b94 833d 035c a5bc
000000e0: bcec dbbc d6eb 26bd 98e7 31bd f7c0 443d
000000f0: 75ba 81bd bf72 afbc b7a7 133d 71b0 cd3d
