master_research/saved_model/models_dm_epo10.pth (torch, 121868 bytes, 25 tensors)

weight f4 [64, 17]
00000000: 0053 aebd b247 95bd 3acb ee3a d7dc 35be
00000010: ed19 033e 0706 f4bd 9333 3cbe 600d 10be
00000020: 4d52 01be e6e4 063e 8ee9 4ebe 9297 4d3e
00000030: c1ab d53b 9128 a3bd 7bd5 0c3d 3ab3 863e
00000040: ebb5 0a3c 5c1d 5dbe afc3 003d 5a7c 233e
00000050: 3a06 223e c260 963d 80f4 7cbc db0a a8bc
00000060: 2774 bbbb 8e55 2bbe cec0 63bd f9dd 2bbe
00000070: b350 383e f37a cc3d 040d 243e aea3 14be
00000080: ad0d 79be a988 dfbd 29e8 30bd 9ab1 c43d
00000090: ad1e 053e 9394 e53d b837 26bc 7675 dcbd
000000a0: 624a 3abc 3ae1 3cbc 01aa 46bd 23d2 46be
000000b0: 8705 f83d 9926 173e 5c3d 41be 0858 853d
000000c0: eb5a 4fbb efc5 f3bd c381 2fbc d798 be3d
000000d0: 67d2 5bbe 6213 03be bcc0 41bd dbea 27be
000000e0: b4da 4cbe 3673 ea3d 9ce8 a7bd c77a 1abc
000000f0: 51db 293e 00e1 863d ed2e eebd 99e2 d9bd
00000100: a834 92bd 6e09 59be bc93 623e f222 4abe
00000110: ec49 7bbe 6516 4c3d 6ee7 0c3e bc41 39be
00000120: 1a99 403e 6ccc f5bd 4df8 82bd 0063 3e3d
00000130: f4b0 0f3d 2893 19be 64d9 eabd 3f75 90bc
00000140: 6172 ecba b059 6bbd 8986 9d3d 9c85 0d3e
00000150: bddc ef3d 2799 b33b 491f 16be 8308 ae3d
00000160: 52b6 113e edd0 253e f1fb fe3d a054 f3bd
00000170: 1295 fbbd dca0 513d 0631 75be e8dd 0ebd
00000180: 6553 34be a7fd 4abe 4d79 e2bd 0758 8c3d
00000190: 51b6 873d b028 913d 00e0 803e 46d5 1c3e
000001a0: bde1 e1bc 55ef efbd d6d0 533e 2428 243e
000001b0: 57ed 653e 8a89 3fba b159 bebd d1a5 cdbd
000001c0: 6c17 943d 69a5 1a3d 3139 93bd 2518 d3bd
000001d0: 49ae 133d 7adc d5bd 2044 573e 087d 3a3e
000001e0: 125f ab3c 9ac2 333e 57b4 833c 6213 963d
000001f0: 7f38 3f3e 436c e23d df97 00be 51b1 a43d
00000200: 9823 0abe 9bec b4bd 48cf a73d 5ac1 513d
00000210: d29e 263e 1393 46be 5d3f 7d3c 45bf 37bc
00000220: cc3d 71bd b411 1bbd b176 8c3d edcf 353e
00000230: c3ff 043e 1615 193d a6e6 b9bd c8aa 5a3e
00000240: 6770 213e 46ab 90bc 0abe 5a3e c2d3 09be
00000250: a718 e0bd 95f2 3b3e 2d5a aa3d f9bd 93bd
00000260: 8e44 193e cfc8 59be b998 b9bc d626 013e
00000270: 0c6b 953a 621d 4dbd d0da 703e 6c85 83bd
00000280: aa95 44be 40c7 76bd 8baf 1fbe 77f6 303e
00000290: f6b6 163e ac05 44be 74d0 b03d e096 e3bd
000002a0: 1d60 8cbd 9a1d 563e 37db d83d 541f 29bd
000002b0: 4a28 473d cc14 06be f467 79bd 47db ae3c
000002c0: 5a05 b1bd 8f6b a7bc 1c6a 2ebe dfc5 313e
000002d0: 43fa 543e 38b4 943d b6c4 623d 91ea a33d
000002e0: b09a 643e a93d 3bbd d1f4 643e 60c2 fe3d
000002f0: 5abb 693e 130d 383e bee9 723e 02d7 debd
00000300: b2cc a4bd af35 1abe e90d 0c3e d235 263c
00000310: b76d 503d 57c2 eabd ad72 293e 8d3e 733c
00000320: 45e6 ae3c f319 2b3d 8777 79bd 7e08 e13d
00000330: 53a7 0fbe 95ce 323e 2991 413d e56a d3bd
00000340: 6362 4dbd 80f5 bfbd f158 b13d 8601 713e
00000350: ab08 283d d3f5 96bd 24dd 4abe 8ea4 6abe
00000360: 3130 13be 5c1d 2e3e 1e91 59bc febf f83d
00000370: dfeb 16bd 69c3 473e 5a4f 21be 4b0b 473d
00000380: ff25 693e 800d 2dbe 0a56 e7bd b2d9 653e
00000390: 1f88 563e c351 09bd 5c31 36bb 57db 42be
000003a0: 6aea a5bd 21de 16be ddfe a6bd 3454 5d3d
000003b0: 72d0 9ebd 1328 27be bf67 17be ddc6 3bbe
000003c0: 9f5d ae3d 54d5 13bb 1edf 42bc d2a7 35be
000003d0: 6865 53bd d3c6 bb39 d21f 49be ba79 0fbe
000003e0: 387c 5b3e 662c 64be 41af 4abe c4aa 7d3d
000003f0: bf28 7dbd 3d33 1cbe a270 513e 90e9 78be
-0.08511925 -0.072890654 0.0018218525 -0.17760025 0.12802859 -0.11915212 -0.18379049 -0.14067602
-0.12629052 0.13173255 -0.20206282 0.2007735 0.006520719 -0.07966722 0.03438328 0.26308614
0.008466224 -0.21593231 0.03143662 0.15965405 0.15822688 0.07342674 -0.015439153 -0.020512989
-0.0057206335 -0.16731855 -0.055603795 -0.16783895 0.17999534 0.09984388 0.1602059 -0.14515564
-0.24321623 -0.10914738 -0.043190155 0.09604187 0.12999983 0.11209979 -0.01014512 -0.107645914
-0.011370273 -0.011528308 -0.048501972 -0.19416098 0.12110429 0.14760818 -0.18871063 0.06510931
-0.0031639885 -0.11902987 -0.01071209 0.09306496 -0.21466981 -0.12800363 -0.047302946 -0.16398184
-0.20005304 0.11447756 -0.081986636 -0.009428686 0.16587569 0.06585884 -0.11630044 -0.10638923
-0.0713895 -0.21195003 0.22126669 -0.19739893 -0.24539918 0.049826045 0.13760158 -0.18091482
0.18808404 -0.12001881 -0.06395016 0.046481133 0.035080865 -0.14997542 -0.11467245 -0.017634032
-0.0018039459 -0.05745858 0.07691676 0.13820499 0.11712024 0.0054809037 -0.14660372 0.08497717
0.14229706 0.1619298 0.12450398 -0.11881375 -0.12284292 0.051178798 -0.23944482 -0.034879595
-0.17609937 -0.19823323 -0.110582925 0.068527274 0.06626571 0.07087839 0.25170898 0.15315732
-0.02757346 -0.11715571 0.20685133 0.16030937 0.22453819 -0.00073065667 -0.09294451 -0.100413926
0.0723103 0.037755404 -0.07188643 -0.103073396 0.036054883 -0.10442443 0.21022081 0.18211758
0.020919356 0.17554703 0.016077204 0.07327916 0.18673895 0.110558055 -0.12557934 0.08041633
-0.1349014 -0.088341914 0.08193833 0.051209785 0.16271523 -0.19392042 0.0154570015 -0.011215036
-0.058896825 -0.03785868 0.06858576 0.17755099 0.1298819 0.037373625 -0.09077196 0.2135421
0.15765534 -0.017659795 0.21361557 -0.13459685 -0.10942202 0.18354256 0.08317981 -0.07213969
0.14967558 -0.21268009 -0.022655832 0.12612471 0.00113997 -0.05007685 0.2352097 -0.064219326
-0.19197717 -0.060248613 -0.15594308 0.17281519 0.14718232 -0.19142789 0.08633509 -0.111127615
-0.0685427 0.2090973 0.10588687 -0.041289642 0.048622407 -0.13093871 -0.060890153 0.021344794
-0.08643599 -0.02043703 -0.17032665 0.17360638 0.20798592 0.072609365 0.05536338 0.08003724
0.22324634 -0.0457131 0.22359015 0.12439418 0.22825375 0.17973737 0.23721978 -0.10880853
-0.08046855 -0.15059541 0.13677181 0.010144668 0.050885882 -0.11462849 0.16547652 0.014846456
0.021350035 0.041772794 -0.060905006 0.10987948 -0.14028673 0.17461617 0.047257576 -0.10323123
-0.050142657 -0.09372997 0.08659542 0.23535737 0.04102389 -0.07371106 -0.19810921 -0.22914335
-0.14373852 0.17003387 -0.013279228 0.121459946 -0.036846038 0.19508137 -0.15752926 0.048594754
0.227684 -0.16899681 -0.112957075 0.22446325 0.20950364 -0.03352524 -0.0027800417 -0.19028984
-0.081013516 -0.14733173 -0.0815408 0.05403538 -0.077546015 -0.16323881 -0.1478567 -0.18337579
0.085139506 -0.0022557573 -0.011894016 -0.177398 -0.05161038 0.00035815555 -0.19641045 -0.14011279
0.21434104 -0.22282562 -0.19793417 0.061930433 -0.061806437 -0.15253921 0.20453122 -0.24307847

bias f4 [64]
00000000: b5f3 4a3e a43f d03d 0dcb 613e 9d0d 713e
00000010: 4d4c abbd aa6a 7d3d 20b7 7b3e 63ab 66bd
00000020: 7af0 a7bb 9d50 cf3c 4994 663d 1c00 493e
00000030: f74b 19be 51ba b1bc 6a1c 173e 954b 003e
00000040: eaa5 57ba 2326 3bbe f51e 223e 1fab 45be
00000050: 8605 debd b539 613e d7ed ffbd 3db2 223e
00000060: 2630 a0bd b229 39be 7423 19be bbe8 b4bd
00000070: 4209 c13d f2cd bf3d 4b45 813e 7af0 74bd
00000080: 7616 443e be47 c63d 1842 3dbe 3ed0 cd3b
00000090: d131 7c3e c457 473d b19c b33d 2098 02be
000000a0: a2e3 98bd 468e 52bd b9b1 77be 88ba 32be
000000b0: d327 a6bc 2f55 0e3e 033a e73d a8f1 c6bd
000000c0: d44b 463e 2351 68be 0fe5 1abe 6146 bf3d
000000d0: 0efa 933c c85c 133e bef3 66bd 863b 1d3e
000000e0: f4c0 573e 565f d83d a1bc f2bd 148f f4bd
000000f0: 78f2 393e e24d 18be acc1 d0bd 42ee 02be
0.1981953 0.101683885 0.22050114 0.2354035 -0.083641626 0.0618693 0.24581575 -0.05631579
-0.0051251026 0.025306994 0.05629376 0.19628948 -0.14970385 -0.021695288 0.14756933 0.12528832
-0.0008226322 -0.18276267 0.15832122 -0.19303559 -0.10840897 0.2199467 -0.12496536 0.15888305
-0.078216836 -0.18082312 -0.1495493 -0.08833452 0.09425594 0.09365453 0.2524818 -0.05979965
0.19149193 0.096816525 -0.18482244 0.006280928 0.24628378 0.048667684 0.08770121 -0.12753344
-0.074652925 -0.051405214 -0.2418889 -0.17453969 -0.020282662 0.13899682 0.11290362 -0.09714061
0.19364864 -0.22687201 -0.15126441 0.093395956 0.018063571 0.14390862 -0.056384794 0.15354738
0.210697 0.10565059 -0.11852384 -0.119413525 0.181589 -0.1487346 -0.1019319 -0.127862

weight f4 [64, 64]
00000000: b5d6 ffbd 8dc0 8d3d 007e 89bd 5ede 913d
00000010: 159f c33c 140c a2bd 4ac1 a23c fe11 bb3d
00000020: 4079 3bbc 156e 94bd 9831 a73d 8fd6 b13d
00000030: 95c1 52bd 1bd9 9ebd e053 313d e698 13bc
00000040: 7e42 d3bd 9d11 47bd 9377 dfba 71cd 053e
00000050: cc0c c13d 8622 7abd e3ae d8bd 886c a2bc
00000060: 9f68 90bd e835 c53d c77c 583d dd04 d93b
00000070: b713 e7bd e4fd 4f3d 547b 013e aaf8 78bc
00000080: 826a dfbc b7fc 85bc fa10 b23d 682f 443c
00000090: fb5f cabd 787b 9b3d 7c6d a73d 621b 5d3d
000000a0: 6090 ed3c 9c8e 933d 92f9 843d 50b8 003b
000000b0: 9263 38bc 2d33 083e 0d05 9fbd 299d c1bd
000000c0: a0a2 bdbc 1838 1abd fbca 9d3c 03c2 a93d
000000d0: 4a63 783d d134 413d a591 2cbd d0f5 cfbc
000000e0: deeb c1bd 7f6d df3d e405 083e 7327 3abd
000000f0: b889 c4bd 43a9 c93d 2e38 51bd cf42 a6bc
00000100: de24 aabd 0bc3 ae3d 82ca db3c efe7 0bbe
00000110: 583d 81bd 0fa2 38bb de3d 6c3d f5ca f7bb
00000120: a131 a63d 5615 913d 8b01 e0bd 787d 2f3d
00000130: 1537 6bbd ea9f 28bd 04e4 8cbc 482d 183d
00000140: f229 bcbd 148f 76bc 665c d8bc 9af3 8dbd
00000150: 2a09 7ebd 215f 00bd c286 b7bd 7b0a cd3b
00000160: 3e1b 98bd 4ac0 02bc 587b 88bc 45e6 aabd
00000170: c815 3b3d 800c a23b 9be8 5ebd b071 b7bc
00000180: 0643 c33d 6ba5 d53d 1fd4 a73d 0621 98bd
00000190: 58f0 93bd efac dc3d e5c6 bdbd d0cb 7abd
000001a0: 2224 0fbe 3dc0 bf3b 34d7 ce3d 1154 0d3c
000001b0: 83d7 353d 28d7 e5bb f782 7bbb 0072 353d
000001c0: da2d ed3d 2e01 7cbd 8d5f b43d e15e 91bc
000001d0: ee17 3fba 03c7 e13c 3301 e13d 266e d33d
000001e0: ee61 e3bd 430d 3d3c a253 a63d d9d1 5b3d
000001f0: 2ce1 7dbd 673e 273d a061 66bd 36a3 073e
00000200: 0e39 2b3d cba1 853d 5ef3 a13c 7400 3abd
00000210: eb09 c53d c0fb 8dbd 003d 843b 5716 02bd
00000220: 7cfb 8bbb 87ec 7e3d bc1e bebc 4619 ccbd
00000230: cb92 debc 985d 933d 463b 21bd 4f27 bbbd
00000240: 333f a23d f66a c43d 4dd7 c739 1bc0 f4bc
00000250: 3d05 efbd 5bdd 01be 6b7c 843d 9d54 af3d
00000260: 6d8b f5bd a478 b5bd 3c31 873d b48f 8fbd
00000270: 27c7 973d 4a91 5b3d dfb1 71bd 4d2f 5f3d
00000280: e8be cebd 924f 95bd 1ede c43d 7dd3 773d
00000290: 9e51 e63d 07be ce3d a80f 563b a8cc 38bd
000002a0: 843e 9dbd 8771 83bd a4e2 48bd 2bc0 8f3d
000002b0: 959d 5c3d 1ac3 b8bd 14e5 033e b4af 0dbd
000002c0: 17b4 e13d ca51 0dbe 7cc5 b93c bb96 d9bd
000002d0: 500d 9a3d 73e2 90bd dc51 4c3c 57e8 aebd
000002e0: e5d3 863d 9ad9 623d 0787 0c3d 0716 143d
000002f0: 8c99 b7bd a242 633d ba01 02be 6422 03be
00000300: e206 aebd bff0 7c3c b6ae 983d 4d63 f0bc
00000310: d287 e3bd a321 40bd 6c2b c7bc 23de 8e3d
00000320: 66e7 633d d6a5 b8bd 2d25 a53d 2c7f 3f3d
00000330: bef7 7f3d 3e61 9abc 35b2 8abc 702c c63d
00000340: 56a2 8ebd 8805 973d f440 b9bd d8dd a83d
00000350: 7c18 d53d f243 f2bc e73a ba3c 2f46 a53c
00000360: 83ff bd3c c9c0 c9bd 3acb a63b 9fcd f83d
00000370: a6bd 0c3d 59c3 0f3c 9c03 a53c b08d be3d
00000380: dd61 3d3d cc02 cabd 59d9 c33c 465f 103e
00000390: b40d 813b 8771 833d e8ba fbbd 591f 0f3e
000003a0: f1ef 463d c008 07bd 79f8 56b9 e578 0e3d
000003b0: ebbd fabd dfb0 b2bc 374e 5bbd cbd8 acbd
000003c0: a68a bf3d 344f adbd cd23 153e 9eaa 833d
000003d0: 44b2 d3bd 8614 cbbd 56ae fa3d 9f97 d63d
000003e0: 6020 c6bd 1909 b43d 1c5d ae3d f5b4 463d
000003f0: 1cf5 9bbc 2c0e aebc b06e bc3d 44b7 02be
-0.12492124 0.06921492 -0.06713486 0.07122491 0.023879567 -0.0791246 0.019867558 0.09134291
-0.0114424825 -0.07247559 0.08163756 0.08683502 -0.051454145 -0.07756253 0.04329288 -0.009008622
-0.10315417 -0.04860078 -0.0017049186 0.13066651 0.09426269 -0.06106808 -0.10580232 -0.019827142
-0.07051205 0.096294224 0.052853372 0.006622894 -0.11283057 0.05077924 0.12644702 -0.015196005
-0.027272467 -0.016355855 0.08694644 0.011974193 -0.09881588 0.07591909 0.08175179 0.053981192
0.028999507 0.07204935 0.06492914 0.0019641109 -0.011254208 0.13300772 -0.07764635 -0.09453804
-0.023148835 -0.03765115 0.019261828 0.08288958 0.060641564 0.04716951 -0.042131085 -0.025385767
-0.09468816 0.109095566 0.13283497 -0.045447778 -0.0959658 0.09846737 -0.051078968 -0.020295529
-0.08307813 0.08533295 0.026829962 -0.13662694 -0.063105285 -0.0028172766 0.05767619 -0.007562036
0.08114935 0.07084148 -0.10937794 0.042844266 -0.057425577 -0.04116813 -0.01719857 0.03715256
-0.09187688 -0.015048761 -0.026411247 -0.06931229 -0.06202046 -0.031340722 -0.0896125 0.006257353
-0.07427071 -0.007980416 -0.016660377 -0.08344702 0.04567507 0.004945338 -0.05442105 -0.022393078
0.09534268 0.104319416 0.08194756 -0.07428174 -0.07223576 0.10775172 -0.09266452 -0.061229527
-0.13978627 0.005851774 0.100996405 0.008626 0.04439498 -0.007014174 -0.0038377622 0.044298172
0.11581011 -0.061524563 0.08807287 -0.017745437 -0.00072896376 0.027560716 0.10986557 0.103237435
-0.11102663 0.011538806 0.081214204 0.053666923 -0.06198232 0.040830996 -0.056245446 0.13245854
0.04180246 0.06525 0.019769367 -0.04541059 0.09621032 -0.06932783 0.004035592 -0.031759586
-0.0042719226 0.06223729 -0.023208015 -0.09965758 -0.027169606 0.07195586 -0.03936317 -0.09138357
0.079222105 0.09590714 0.0003811665 -0.02987676 -0.11670921 -0.12682097 0.06469043 0.085610606
-0.11989484 -0.08860901 0.066011876 -0.07009831 0.07411032 0.053605355 -0.05900752 0.05448847
-0.10095006 -0.072905675 0.09612678 0.060504425 0.11246036 0.100948386 0.003266314 -0.04511705
-0.076779395 -0.06418138 -0.049044266 0.07019075 0.05386122 -0.09021588 0.12880355 -0.03459139
0.110206775 -0.13800731 0.022677176 -0.10624453 0.075220704 -0.07074442 0.012470689 -0.08540409
0.065833844 0.055383302 0.03430846 0.03615382 -0.089648336 0.055483468 -0.12695971 -0.12806088
-0.084974065 0.015438258 0.074551985 -0.029344225 -0.1110989 -0.04690708 -0.024312697 0.06975963
0.0556406 -0.09016006 0.08063731 0.04675214 0.062492125 -0.018845197 -0.016930679 0.096764445
-0.06964557 0.07374102 -0.09045592 0.08245438 0.10405061 -0.029573414 0.022733165 0.020175068
0.023193127 -0.09851224 0.0050901445 0.12148594 0.03436055 0.008774602 0.020143323 0.093043685
0.046235908 -0.09863815 0.02390735 0.14098844 0.003938401 0.06418138 -0.12291509 0.13976802
0.04856867 -0.03296733 -0.00020501194 0.034783263 -0.12243255 -0.021812854 -0.05354139 -0.084397875
0.09352617 -0.084623724 0.14564438 0.06429027 -0.10336736 -0.09916024 0.12240283 0.10478138
-0.09674144 0.08790798 0.08513853 0.048512418 -0.019037776 -0.021246992 0.092007995 -0.12765223

bias f4 [64]
00000000: 11bc 6ebc 8633 253d 4047 e6bc bdd8 4a3d
00000010: a592 d03d ba3e f33d e601 75bd 9b71 ebbc
00000020: 2a2e bcbd 6083 dcbd 75e9 38bb ee0f e3bb
00000030: 5081 9c3d 5b5f fbbd e100 d43d 22d4 d7bd
00000040: f63b 8d3d 77a0 75bd 63c2 84bd fa11 3c3d
00000050: cca4 7abd 4939 983d 376d acbd a4b2 ee3d
00000060: aae2 0f3e 1772 0bbd bd58 b63d 984d d43c
00000070: 3ed4 a3bd 626b afbd 248b 82bd 3015 bdbd
00000080: e824 7abc 4235 633d c2cb 593d 9344 8abd
00000090: 0549 303d 0abf 16bc a14f 01be a529 08bd
000000a0: 6b46 f1bd 2fbf d7bc da44 043e 0e48 4cbd
000000b0: de1d 663d 4132 393d bdcf ad3c 0fe9 2f3d
000000c0: fce7 0dbd 8823 bb3d b8b4 d93d ba56 fcbc
000000d0: 28f4 21bd 4b62 233d dc23 89bd f333 f2bd
000000e0: 240c 9c3d 23b4 b8bd 4c11 b73c d6a6 3b3d
000000f0: 250a 793d 8414 9abd c629 8c3d 130d b63b
-0.014571206 0.04033234 -0.028110147 0.049523104 0.1018422 0.118771985 -0.059816264 -0.028740695
-0.091884926 -0.10767245 -0.0028215323 -0.006929389 0.07641852 -0.12274047 0.1035173 -0.10538508
0.06896202 -0.059967484 -0.06482389 0.04591558 -0.06119232 0.07432801 -0.084192686 0.11655167
0.14051309 -0.03404435 0.08903644 0.025915906 -0.07999466 -0.085654035 -0.06374195 -0.09232557
-0.015267588 0.055470712 0.053172834 -0.06751361 0.043038387 -0.009200821 -0.12628032 -0.03324284
-0.11781009 -0.02633628 0.1291689 -0.049873404 0.056180827 0.04521394 0.021217221 0.04294687
-0.034645066 0.091376364 0.106301725 -0.030803073 -0.039539486 0.03988866 -0.06696293 -0.11826315
0.07619503 -0.09018733 0.022347115 0.045813404 0.06080069 -0.07523444 0.06843905 0.005555758

weight f4 [1, 64]
00000000: c1ab 863c 9130 94bd 2288 653d 44d3 bc3d
00000010: 7bbb 11bd 03eb 3ebd ca4f 8b3d 807d b53d
00000020: 2e59 fcbd 7b02 ddbb 64d8 02bc dd7f 253d
00000030: ef5b c73d 612b eebd a147 f6bb fb59 af3d
00000040: f8d8 c13c 84bc 9b3d 8dfd 17bd 31c8 f6bd
00000050: 1326 303d 055a e93d 94b7 ccbd 4195 4abd
00000060: 9756 eebd 90ad 44bd 26bd 353d 3c92 4f3c
00000070: 27e8 08be 48b0 b03d fb06 133e f1d0 05bd
00000080: 1881 ba3c dcfc b43d 3430 793d b4f7 153d
00000090: c780 183e 5181 303d 02ce 67bd 0ed2 883c
000000a0: b9cb 1abd 6e95 babd b3c0 11be 8992 683d
000000b0: 5844 bbbd 2a40 90bd 6f67 b2bd 8543 c23d
000000c0: 6096 5a3d 1e5e 6b3d 1f14 8dbd 8423 f83d
000000d0: 2b94 02be d3ba 773d a79c 48bd d844 1dbd
000000e0: fd6b 143d 5c26 363d 105c acbd 2731 873d
000000f0: ad0b 953d c565 0b3e a315 0c3e b545 6c3d
0.01643932 -0.07235826 0.05603803 0.09219983 -0.035579186 -0.046610843 0.06802328 0.08861828
-0.12321697 -0.0067446805 -0.007986162 0.040405143 0.09734332 -0.116293676 -0.007515863 0.08562084
0.02366303 0.07604316 -0.03710704 -0.12049902 0.04300506 0.11394123 -0.09995952 -0.049458746
-0.116376095 -0.048017085 0.04436984 0.012669142 -0.13369809 0.08627373 0.14358132 -0.032669965
0.022766635 0.088372916 0.060836986 0.03661318 0.14892875 0.043092076 -0.05659295 0.016701724
-0.03779194 -0.09110533 -0.14233665 0.05678037 -0.09143895 -0.07043488 -0.08711135 0.094855346
0.053366065 0.057462804 -0.068886034 0.12116149 -0.12751834 0.060480904 -0.04897752 -0.038395733
0.0362358 0.044470176 -0.08415997 0.06601172 0.072776176 0.13613041 0.13680129 0.057683665

weight f4 [64, 17]
00000000: 7b3c 033e ee07 00be 902d 33be 8901 993d
00000010: b547 c03d ce7c 15be 8708 13bd df16 6b3e
00000020: 228d 18be 2ee0 4c3e f7cc bb3d a1ae e23d
00000030: 3f22 5bbd 12ed 74be 20dd 2f3e cd56 11bd
00000040: b008 bf3d f895 40be 911a 383e a77b a53b
00000050: 43e7 063e 6804 653e ea3a d13d 9dfa 0abe
00000060: ff43 08be 225f 05be d7a7 8bbc 3db9 a5bd
00000070: ee36 0fbe 6bad 233d c3e0 3a3e 7ad8 713e
00000080: 169a c33d 0bce 203e 6b0b cfbd ed3d c8bd
00000090: bfcd e3bc d791 693e 3bae 35bd cfd2 083d
000000a0: f740 563c 08e7 a4bd edbf febd e537 59be
000000b0: 7ba5 6ebe 7e5d 9abd 3989 f73d 92e2 563e
000000c0: 0a11 09be 0e7c 20be 3389 d0bc 8075 4dbe
000000d0: c683 5c3c 4b7a d5bb 2e85 24be 7fd7 3bbd
000000e0: 1505 2abe d891 53be fd9b 4a3e a37c 03be
000000f0: 8f44 00be 56b1 cbbd a02f f1bc 14dd 283e
00000100: a821 04be bb51 523e 36c3 1d3e aa1b 5b3e
00000110: ee3e 843e 53ee b3bd b909 ccbd ebf5 84be
00000120: b789 5b3d 6144 8ebc 59ec 32be e918 873b
00000130: 3048 4abe 2df4 0bbe 7a13 143e 4a30 cf3d
00000140: 238c 283c db2e 02bd e733 07be eef7 f13d
00000150: 428c 50be ce2a 5f3e 228d 403e b3fa 623e
00000160: f7d8 46be a260 73bd e90d 013e c7b2 14be
00000170: cc80 fdbc efa5 88bd 1abd 513e 3b13 16be
00000180: 02e9 99bc 398d 31be 3330 523e befd c03d
00000190: 07ac 26be e99a 2fbd d49e 51be 7bd7 48be
000001a0: 5401 4c3e ae49 f73d b282 9dba 5912 3739
000001b0: cf56 d83d 1803 fd3d a116 593e 49bc 603c
000001c0: 166f 26be f9da 1b3e 9745 9a3b 359f 5bbe
000001d0: 43fd e5bd c3e3 b23b 0f26 7cbd 8ffd 0dbe
000001e0: 7c48 00be aad0 0d3d 8d32 bbbd ad4c 743e
000001f0: f492 493d 2b2a 9c3d 173b 253e 722f 173d
00000200: 48fe 65be 6b56 65bd 1085 e6bd beac 903b
00000210: 7f96 723e 5117 23be 8e4e 4cbe a8fe 32bd
00000220: 27ee a2bb fca3 e23a 94e6 74be be8e 5c3d
00000230: 0b64 5fbb 1db4 bfba 7a2e 99bd dbb0 533e
00000240: 0820 a6bd e2e6 20be 87aa ffbb 8361 29be
00000250: 8758 5fbe 75c1 163e ce2f 0ebe de9c 1dbe
00000260: b501 3fbe e825 553d 2820 d13d 24bd 663e
00000270: 6f28 f23d de76 22be d3e4 17be 5aff 593e
00000280: 2b07 81b9 214c 393e 49af aa3c a98c ea3d
00000290: 3c0e f43d 0162 593e 71d2 40be 116c 653d
000002a0: 47df 7dbe 2d9d 32be 43f1 ccbd 1e9f f23d
000002b0: 15e7 13bd 385b 2abe e685 66be 16a0 493c
000002c0: f0e9 533e df27 143e 9b60 713e cc1d b93d
000002d0: f59e 8c3b 9b60 65be d141 d6bd 2be8 1dbe
000002e0: c2eb 953d 2a39 bcbd 705d 6dbd 52ea 743e
000002f0: c1f8 b9bc 029a 5cbe 1bfe 353e 60ea 11be
00000300: 5235 d7bd fed9 753e 0df0 7e3e 1612 d73d
00000310: 0388 4bbd 5050 92bb d94d 0cbe 88c7 5d3e
00000320: 0f13 dd3d 8544 583d dbbe 9f3a 9802 2d3c
00000330: 5287 203e b1bc 183c 11a2 1c3e a62c 193e
00000340: ac23 babd 93dc fd3d e43b e2bd 3d61 ff3c
00000350: 390b dd3d f470 853d 9fa0 05be 586b 00be
00000360: 9fd0 1abe 17dd 2a3e b02e 203e 03e6 0abe
00000370: 55b6 2d3d 1ae0 193e 4e23 0dbe ed34 1aba
00000380: e5fc 7d3d 82ae 47be d240 87bd 0efd 02be
00000390: 87ee bcbd 6092 12be f578 aebd a4ed 5f3e
000003a0: b38c 393d 133e 4b3e 89d2 2e3c 4af8 6b3e
000003b0: f4ff 353e 4ac7 17be 3f29 403e 33d9 3abe
000003c0: 5ace 133d f145 523e 7796 3f3e cd7c b6bd
000003d0: 8da0 4fbe 5527 cbbc b9c8 4f3e 7883 d3bd
000003e0: 4cd0 4e3e f89c f0bd 47e8 33bd 8309 f43d
000003f0: 2d90 13bd e8e0 fdbd 48b3 a43d 4b52 02be
0.1281604 -0.12503025 -0.1749785 0.07470996 0.09388677 -0.1459839 -0.035896804 0.22957943
-0.14897588 0.20007393 0.09169953 0.11068464 -0.053499456 -0.2391856 0.17174196 -0.03548317
0.09327829 -0.18807209 0.17978884 0.005050141 0.13174157 0.22364962 0.10216315 -0.13572164
-0.13307188 -0.13024572 -0.017047806 -0.08091972 -0.13985798 0.039960306 0.18249802 0.23617736
0.09550874 0.15703599 -0.101096 -0.097774364 -0.027808068 0.2280954 -0.044355612 0.033404168
0.013077012 -0.08051878 -0.12438951 -0.21212728 -0.23305313 -0.075373635 0.1208672 0.20984867
-0.13385406 -0.15672323 -0.025456047 -0.20064354 0.013459152 -0.0065148226 -0.16066429 -0.04585981
-0.16603501 -0.20661104 0.19786067 -0.12840514 -0.12526153 -0.099459335 -0.029441655 0.16490585
-0.12903464 0.2053899 0.15406498 0.21397272 0.25829262 -0.08785691 -0.09962792 -0.2596887
0.053598132 -0.01736659 -0.17472972 0.0041228426 -0.197541 -0.13667364 0.14460555 0.10116632
0.010287317 -0.031782966 -0.13203393 0.11814867 -0.20366004 0.21793672 0.18803838 0.22165947
-0.19418703 -0.059418328 0.12602963 -0.14521323 -0.030945204 -0.06672274 0.20482293 -0.14655773
-0.018787865 -0.17339028 0.20526199 0.094233975 -0.1627656 -0.042872343 -0.20470744 -0.1961345
0.19922382 0.120746 -0.00120171 0.00017459075 0.105634324 0.12354106 0.21200038 0.013716766
-0.16253313 0.1522025 0.004708003 -0.21447451 -0.112299465 0.00545928 -0.061559733 -0.13866256
-0.1252765 0.034622826 -0.09140501 0.23857374 0.04921241 0.076252304 0.16135822 0.03691048
-0.22460282 -0.055990618 -0.112558484 0.0044151237 0.23690222 -0.15926863 -0.19951841 -0.04369989
-0.0049722376 0.0017291303 -0.23916084 0.053847067 -0.003408673 -0.0014625821 -0.07479568 0.20672934
-0.08111578 -0.15713075 -0.007802311 -0.16541104 -0.21811114 0.14722236 -0.13885424 -0.15391871
-0.18652995 0.052038103 0.102112114 0.22533089 0.11824118 -0.15865657 -0.14833383 0.21288815
-0.00024610138 0.18095447 0.020835536 0.1145261 0.119167775 0.21228792 -0.18830277 0.056011263
-0.24792205 -0.1744277 -0.100069545 0.118467554 -0.03610905 -0.1663636 -0.22512016 0.012306234
0.20694709 0.14468335 0.23572008 0.090388864 0.00429141 -0.22400133 -0.10461772 -0.15420596
0.07320358 -0.09190591 -0.057950437 0.23917511 -0.022701623 -0.21543124 0.17772715 -0.14249563
-0.10508217 0.24008939 0.2489626 0.105014965 -0.049690258 -0.0044651404 -0.13701572 0.21658146
0.10794651 0.05279972 0.0012187617 0.0105597 0.1567662 0.009322331 0.15296198 0.14958438
-0.09088835 0.12395587 -0.110465795 0.031174297 0.10793156 0.06515685 -0.13049553 -0.12540948
-0.15118645 0.16685902 0.1564281 -0.13564305 0.042410214 0.15026894 -0.13782999 -0.00058825203
0.062008757 -0.19500163 -0.0660416 -0.12791845 -0.09225183 -0.1431365 -0.085191645 0.21867996
0.045300197 0.19847898 0.010670313 0.23043934 0.1777342 -0.14822116 0.18765734 -0.18246917
0.036085464 0.20534493 0.18709742 -0.089105226 -0.20276089 -0.024799028 0.20291413 -0.1032781
0.20196646 -0.117486894 -0.04392269 0.11915877 -0.03602617 -0.12396413 0.08042008 -0.12726705

bias f4 [64]
00000000: 72cf 8ebc 00c8 083d 7832 723e 2a78 973d
00000010: 3181 8c3d 0cbe d6bd b299 1cbe 2bf9 27be
00000020: 46c4 babc a710 c2bd e3b0 2f3e 3b73 823d
00000030: 4f22 c3bd 1bf2 ea3c 2beb 343e 3efa 22be
00000040: 6142 28be a198 abbd 9c8f 3e3d e312 80bd
00000050: 386a 743c edfd d6bc b3fa 1bbe cd25 bdbd
00000060: d1cc 143e 5e0b 2fbd 949c 80bd e3b9 393d
00000070: 6920 343c 2faa 0fbe a06b bfbd b5fd 07bc
00000080: e43d 60bd 9d20 5c3e de27 25be 84c2 adbd
00000090: 4242 373e 0ae6 27bd 1a5b 913d fccd 1ebe
000000a0: 42e0 f43d dc6b 62bd e0d9 71be 08d5 2d3e
000000b0: 0cdc 72be 932c 3b3b aaa2 a13d bb5c 08be
000000c0: 991c 1b3d 4f41 60be b8d6 543e 25ca 063e
000000d0: 0d83 463e 4fd3 553e 7b6f 653e 9a61 163d
000000e0: a664 cc3d facf 47bd 20c9 803c 9164 233e
000000f0: 115c 37be 3191 9ebd 4b44 62bd b666 3b3d
-0.017432902 0.03339386 0.23652065 0.07395966 0.06860579 -0.10485467 -0.15293005 -0.16403644
-0.022798669 -0.094758324 0.1715732 0.06369635 -0.09528028 0.028679898 0.17667834 -0.15915772
-0.16431572 -0.08378721 0.046523675 -0.06253602 0.014917903 -0.026244128 -0.15232353 -0.092357256
0.14531256 -0.04273545 -0.06279865 0.04534329 0.010994055 -0.14029764 -0.093467 -0.008300235
-0.054746523 0.21496816 -0.1612849 -0.084843665 0.17896369 -0.040990867 0.07097454 -0.15508264
0.11956836 -0.055278644 -0.23618269 0.16975796 -0.23716754 0.0028560504 0.07892354 -0.13316624
0.03786907 -0.21899913 0.20785034 0.1316305 0.1938593 0.20881389 0.22405808 0.036714174
0.09980135 -0.048782326 0.015720904 0.15956332 -0.17906214 -0.07742537 -0.05524091 0.04575225

weight f4 [64, 64]
00000000: 2958 2c3d dc65 2a3c 948a 57bd a879 75bd
00000010: a109 bfbd 558c 0dbe 3059 033e 559c 2c3d
00000020: 875d ce3d 33e4 f23d 34d7 a33d 12fc 8cbd
00000030: 2ce6 f4bc 2347 88bd 15b3 01bd 3db2 193c
00000040: f27d 5bbd 08e4 083e 49dc 09be cb7e 3e3d
00000050: e10b e23c 65e0 3cbd 2632 fbbd d62c 9e3d
00000060: abd5 1c3e 552b 19bc 61ca aabd ce97 513d
00000070: 9f05 c43c 6f97 df3d 31ee c8bd ce48 953d
00000080: 0a87 14bd 5fd2 c5bd 6dd8 0a3e ee6d 8a3d
00000090: 6cb4 573b a22d 13bc 1023 84bd 3223 cbbd
000000a0: 9ff3 5e3d e60c 0ebe a7cd 4bbc 4ae3 9ebd
000000b0: a3f4 4fbb 9d1c c43d 0b2d 9cbd 17dd b4bd
000000c0: af8a febd c900 8d3d db61 84bd a646 a13d
000000d0: 6dce 1dbd 5353 a13d 1d04 683d b433 e13d
000000e0: 76d2 c0bc 8827 0e3e 6578 053e 2919 0b3c
000000f0: c1b2 7ebc 252a 4b3d 5192 81bd 619d 703d
00000100: e82a 86bc c395 ca3d 6610 793d a52b 65bb
00000110: 1a4e f5ba 320d 94bd 253e a0bd 45f2 12bd
00000120: 1efa 733d b702 c93b 4332 f03d 183b 7d3d
00000130: 46b6 473d 1c80 a83d 2746 413d eb05 1cbd
00000140: aa59 163c 190a 6b3d 912e ee3d b187 863d
00000150: a5ad 86bd 4a2d a5bd 2ae2 47bd c037 62bc
00000160: 8a66 32bd 1c69 c8bd a075 113e 7e72 d83d
00000170: 3290 f83d 2b5d 193c 8089 75bc 50b6 74bd
00000180: 2579 923b 33e5 e23d fe68 acbd bd20 8fbd
00000190: 04df 0f3e 1222 c83c d0be 0c3b 80b4 cdbd
000001a0: bddc b5bd 53f5 a43c a68e b73d b997 0d3e
000001b0: 25d9 6ebd 13ab 90bc 07f8 2e3d 4ea2 79bc
000001c0: cd64 4fbd d007 b13d 9234 52bb f4c4 c33d
000001d0: c139 86bd 4cf7 dcbd 4e71 5a3d d483 8dbd
000001e0: bc57 003d 910e 093d 6caf abbd 9719 c73d
000001f0: d5b4 873d bac4 cd3d a4ba cbbb c122 d93d
00000200: 64da 88bd 233e 8b3d 8765 80bd 1b7d a1bd
00000210: d13d de3d 36c0 8abd d322 3c3c 7e07 663d
00000220: 3774 523c 3fd0 84bd fd56 9cbd ebd0 4dbd
00000230: f4b2 ea3d 8add 503d 19aa 61bd 17b6 743d
00000240: 7491 fdbd 723f 5fbd 5a0e a13c 5e4f ee3d
00000250: 64ad 2b3d 1fe1 813d 4ae9 1dbd 6479 8e3d
00000260: 42c4 babd 5d80 1b3c a095 0c3e 0547 bd3d
00000270: 927c 2b3d 3126 44bd d9d7 d93d ba5b b5bd
00000280: 5054 083d c9f3 f7bd ec44 a1bc 1366 ba3d
00000290: 09ab 933b b747 8d3d 0752 23bc 1055 91bd
000002a0: bd32 ba3d a748 173e 62fb d5bd 1642 74bd
000002b0: a18d fa3d 3057 173d c016 b03d c377 02bd
000002c0: 8f57 143e 1d87 293d c5bd 793d 8c00 c6bd
000002d0: 463a 393c 443b 693d 9c54 0c3e 3059 e2bd
000002e0: 2f98 a5bd 21c6 61bc 2e16 95bd f73d 0e3e
000002f0: 3d34 e93d 017a b93d e1ab 3bbd 2189 963d
00000300: e23e a43d 41e1 863d fc6c 9f3b af0c 8e3d
00000310: 0e12 cbbd 3900 00be 093c b5bd 3409 ce3d
00000320: f481 2c3c 8b92 35bd c7eb 2a3d 714a b7bd
00000330: 3459 cbbc 67e1 54bd 007c 353b 899f 5b3d
00000340: 8c60 bd3d f320 9abd cc33 0e3d c680 433d
00000350: 3d95 d43d c11e 0dbd 2c75 f8bd b7ae 6c3c
00000360: 129b a23c 6a9a 98bd 988e 013e 55f9 c8bc
00000370: e051 323c 4713 cc3d 9cb4 a13d e5e9 553d
00000380: dfe5 a8bd e8f5 95bd 8a8b 81bd 86c8 a93d
00000390: cdec 3ebd 8b24 703d 77cb a63d c018 9c3d
000003a0: 8fcd 533d 33bb a5bd 15e3 bfbd 11cf 84bd
000003b0: ebcf ec3d 6e68 cfba c576 15bc db32 00bd
000003c0: 8f21 edbd 9f9f 16bd 5738 493d 5338 363d
000003d0: d36b 0d3e b949 083e eff6 053c 3a9b e5bc
000003e0: 8e59 853d 0d4c de3d d3f0 8c3d be89 43bd
000003f0: 3209 bcbd 2577 b73d 9b0d 48bd 870f 7abd
0.042076264 0.010400262 -0.052622393 -0.059930474 -0.093280084 -0.13823064 0.12826991 0.042141277
0.10076433 0.11859932 0.08000031 -0.06884016 -0.02989491 -0.06654193 -0.031664927 0.009380874
-0.053586908 0.13368237 -0.13462938 0.046507638 0.027593555 -0.046112437 -0.122654244 0.077233955
0.15315883 -0.00934871 -0.08339382 0.051170163 0.023928462 0.109175555 -0.098110564 0.07289277
-0.036261596 -0.09659266 0.13559122 0.06759249 0.0032913936 -0.008983048 -0.06452 -0.09918822
0.054431554 -0.13872108 -0.012439168 -0.07758196 -0.0031731508 0.0957577 -0.07625779 -0.08831232
-0.124287955 0.068849154 -0.06463977 0.07874803 -0.03852694 0.07877221 0.056644548 0.1099619
-0.023537856 0.13882267 0.13034208 0.008489885 -0.015545548 0.04960074 -0.06326736 0.05874384
-0.016377881 0.09891846 0.060806654 -0.003496864 -0.0018715293 -0.07229079 -0.07824353 -0.035875577
0.059564702 0.006134357 0.11728337 0.061823934 0.048757814 0.0822756 0.047186043 -0.03809158
0.009176651 0.057382677 0.116299756 0.0656885 -0.06576089 -0.08065279 -0.04879967 -0.013807237
-0.04355482 -0.09785673 0.14205027 0.10568713 0.12136878 0.009360592 -0.014986396 -0.05974418
0.004470008 0.110788725 -0.08418463 -0.06988666 0.14049917 0.024430308 0.0021476038 -0.10044193
-0.08879993 0.020136511 0.08962755 0.13827409 -0.058312554 -0.0176597 0.042717006 -0.01523645
-0.05063324 0.08644068 -0.0032074791 0.0955905 -0.065539844 -0.10789356 0.053330712 -0.0690991
0.03133367 0.033461157 -0.083830684 0.09721678 0.06626288 0.10047288 -0.0062173177 0.10602332
-0.0668228 0.06798961 -0.06269365 -0.0788519 0.10851634 -0.067749426 0.011482912 0.05615949
0.012845091 -0.06485032 -0.07633779 -0.050248068 0.11459914 0.050992526 -0.05509386 0.059743967
-0.123812586 -0.054503866 0.019660164 0.11636232 0.041913405 0.063417666 -0.03855256 0.06956747
-0.091194645 0.009491053 0.13728952 0.092420615 0.041866846 -0.047887985 0.10636873 -0.08855386
0.03328353 -0.12107045 -0.019686185 0.091015 0.004506473 0.06898444 -0.009968287 -0.070963025
0.09091709 0.14773808 -0.10448338 -0.059633337 0.12234045 0.036948383 0.08598089 -0.031852495
0.14486526 0.04138862 0.060971994 -0.09668073 0.011305397 0.056941286 0.13704151 -0.110521674
-0.08085667 -0.013780148 -0.07279621 0.13890825 0.11386917 0.090564735 -0.045818213 0.07350374
0.080198064 0.065859325 0.004865287 0.06936013 -0.09915553 -0.12500085 -0.088493414 0.10060349
0.01052903 -0.044329207 0.04172876 -0.089497454 -0.024822809 -0.051972773 0.0027692318 0.05361894
0.092469305 -0.07525816 0.034717366 0.04773023 0.103800274 -0.034453157 -0.12131724 0.014445952
0.019849334 -0.07451327 0.12652051 -0.024532953 0.010883778 0.09964614 0.07895777 0.052225012
-0.082469694 -0.073222935 -0.06325443 0.082902 -0.04661255 0.0586286 0.081442766 0.07621908
0.051709708 -0.08092346 -0.09369484 -0.06484807 0.11563095 -0.0015823969 -0.009122555 -0.0312985
-0.115786664 -0.03677332 0.049125995 0.04448731 0.13810663 0.13309373 0.008176549 -0.02802812
0.06511222 0.10854349 0.06881871 -0.047738783 -0.09181441 0.08958272 -0.0488411 -0.061049964

bias f4 [64]
00000000: a028 e5b9 263a 95bd 6c07 c53d ca27 a2bd
00000010: 0969 d2bd b91d 15be 9aa7 523d 013a 623d
00000020: 7a9b 853d 216f 4cbd 4928 25bd 0c72 c5bc
00000030: 0be9 233d 2c76 95bc 8457 7fbc 5d91 4dbd
00000040: 18e6 803c 1d33 54bd 12fd 893d 4367 883d
00000050: 9abc b4bd aa28 fd3b 9cf9 e03d f002 c33d
00000060: a668 b03d 9dd2 f7bd bac1 96bc d26c c73d
00000070: ca82 b73d 8449 1dbd 78cb fabd 12f6 ef3d
00000080: e8de b23c 6a71 9abd af33 073e 66cc d6bd
00000090: 1c21 be3d 4860 613d d2c6 b53d 0461 963a
000000a0: d634 0abc 80eb b1bc a861 c13d 77cc bc3c
000000b0: 107c 91bd 73f1 4bbd 1adb 9a3d 0815 023e
000000c0: 415e df3c 8531 95bd b954 143d cad7 ed3d
000000d0: 9816 c1bd 81f8 143d f253 84bd 7823 44bd
000000e0: 5172 283d c0b0 3c3d 59b6 463d 4ccf af3d
000000f0: bce0 8c3d cea5 4abd c60c 9d3d f0c7 813d
-0.00043708552 -0.072864816 0.09620556 -0.079177454 -0.1027394 -0.1456212 0.05142937 0.055231098
0.065237954 -0.04991067 -0.040321622 -0.024102233 0.04001717 -0.018244825 -0.01558483 -0.050187457
0.015734717 -0.051806558 0.067377225 0.066603206 -0.088250354 0.007725795 0.10985109 0.09522045
0.0861371 -0.12100718 -0.018402923 0.09737553 0.08960493 -0.038400188 -0.1224584 0.11716856
0.021834806 -0.07541163 0.1320331 -0.10488205 0.09283659 0.05502346 0.088758126 0.0011473005
-0.008435449 -0.02171874 0.094424546 0.023046715 -0.07103741 -0.04979081 0.075613216 0.12703335
0.027266623 -0.07284836 0.03621361 0.11613424 -0.094281375 0.036369804 -0.06461324 -0.047885388
0.041124646 0.046067 0.048513744 0.085844606 0.06878802 -0.04947453 0.07668452 0.06336963

weight f4 [1, 64]
00000000: 6a14 93bd 73cb 093e f007 123e b5cb fdbd
00000010: eb4b 80bd fe18 9d3d 802b 8cbd a477 f33d
00000020: 3fee a7bd d930 9ebd 2eee 153d a93a 213d
00000030: b1a1 cd3d 38ac 38bd 5037 3a3d 16dc 8ebb
00000040: 8392 d1bd f599 493d 01f0 0b3e 2ade 1d3e
00000050: e069 9abd 7fd7 d63c 31b0 e0bd 0eab 2dbc
00000060: 6ca2 c93d a756 c53d 1fc7 bdbd 1677 81bd
00000070: ac65 89bc 60ba fbbd e02a 813c 0687 e4bc
00000080: 07fc 803d f074 85bd d71b 1e3d 3a85 ea3d
00000090: ab5d 85bd 4372 02be 6ecb fabd 0d4d 2b3d
000000a0: e7cf e23d 090b 9038 f1a8 1d3b 8b11 923d
000000b0: 3b24 533d f75b 14be 8997 a63c 2b1d 0ebe
000000c0: 562e 1b3e d800 433d c11b 03bd 8f41 d3bd
000000d0: 2d46 8e3d e0aa d93d a23e 2bbd e4fe ce3d
000000e0: 2b58 dc3d e352 f8bd 196c e5bd 11ac 13bd
000000f0: 2b37 b7bd 65fa 563c ae38 b93d 5a4a 6ebd
-0.07181628 0.13456516 0.1426084 -0.1239237 -0.0626448 0.076707825 -0.068442345 0.11888054
-0.08199739 -0.07724161 0.0366041 0.039362583 0.10040606 -0.045086116 0.045462906 -0.0043597324
-0.10233023 0.04921909 0.13665773 0.1541678 -0.07539725 0.026225803 -0.10971106 -0.010599865
0.09845433 0.09635668 -0.09266495 -0.06321542 -0.016772114 -0.122914076 0.015767515 -0.027896415
0.062980704 -0.06516445 0.03860077 0.11451192 -0.06512006 -0.127389 -0.122458324 0.04182153
0.110748105 6.8685105e-05 0.0024056996 0.07132252 0.051548224 -0.14488207 0.02033593 -0.13878314
0.15154395 0.047608227 -0.03200889 -0.10315239 0.06946979 0.10628295 -0.04180778 0.1010721
0.10759004 -0.121251844 -0.112022586 -0.036052767 -0.08946069 0.013121222 0.09044014 -0.058176376

weight f4 [64, 17]
00000000: 976c 1e3e bf7c 9dbd 7e0c 84bd 3b64 26bd
00000010: a659 643e 6418 0b3d 13cc 4b3e 73da eabd
00000020: 50cf 013d 1725 87bd e74c 8abd 88e7 2abe
00000030: 3a14 33be 71f3 0abe 863b 403e b54e 39be
00000040: 0029 013e 5569 4c3d d8be 70bd 16eb 4f3e
00000050: dad6 b83d 23d4 e838 c08b 003e 295f 34be
00000060: 26c5 533e 7c02 743d 126b 27be f222 50bc
00000070: 97be 88bc 4145 afbd 2504 18be 6f11 e3bd
00000080: c6d7 41be 8f7b ebbc 6962 12be c1ee 6ebe
00000090: 06b4 ee3d 0fb7 363d e00e 443e c604 333d
000000a0: 41cd 2a3e b069 c93d f08f 183e d5bb bd3c
000000b0: 70e6 0b3e 2631 2ebe 9359 313d 358d 0a3e
000000c0: 15c7 7abd 8d19 233e e996 893d 7b7e 1fbd
000000d0: 5296 eebb 9ee7 55be d6d5 46be 5d65 293d
000000e0: 246c aa3d e0a4 833e 6ac8 25bd 9a3e e1bc
000000f0: 28b0 1a3e 7d75 c33c 707f 01bd 2079 7f3d
00000100: 5194 06bd 1aa5 be3d 9d7b 4d3e d107 dcbc
00000110: 476f 113e 73b5 c93d 0eb9 1abe 6d26 7b3d
00000120: cb52 cb3d a385 28bd df78 c4bd 2da4 a53c
00000130: ad51 dbbd 8199 0cbe 46b8 953d 87f9 52be
00000140: 0fc5 3fbe 407e db3d 788b e0bd d9dd 7e3e
00000150: f01c d9bb 715e 83be d571 e5bc b312 1a3d
00000160: 2680 ebbb fe76 d4bd 9c62 9dbd bfb7 1c3c
00000170: 8281 633d 6528 34be 4991 d7bc 6f53 79be
00000180: 2218 2abe 93b6 fcbd 20c6 4b3e 9cc2 db3c
00000190: d642 9f3c edce 40be 728c b1bd 41ba 4fbe
000001a0: 5f31 613e 789a 86bd 4060 57be ff87 643e
000001b0: 6d67 dcbc 7fc6 733e e74b d1bd feef d8bc
000001c0: d83e 093e 4369 613e 831d dcbd f3af 96bd
000001d0: 63c2 cebd 44f9 0c3e 946b 803d 3af6 963d
000001e0: f531 803c c75d 3bbe 9574 0dbe af1d d63d
000001f0: 8a47 47be 8cc4 603e 2c94 a6bc 91a0 15bc
00000200: 4a8d 0abe 0117 3bba 28f7 2bbd 9d84 873c
00000210: e79c 463e 01e6 56be 5372 cebd bc34 203e
00000220: a220 413d 0111 423d 9969 5c3d 443f 23bd
00000230: 145b 5dbe 2fbd 943d accd 7f3e ca3d 06be
00000240: f29c 293e e70c c03d 1876 3bbe e0fc ec3d
00000250: 8443 96bd 0555 023e 7635 77bd 8ecc 18be
00000260: 4b19 633c 14df 2a3e 5fe2 03be 88ce 863d
00000270: 97c3 1dbe e2c6 0d3e 4f96 003e 8ce5 173e
00000280: d8af 3bbe 946e 6abe 7ae4 c2bc fec4 b23a
00000290: e90b 703d 27a2 38be e0ab 64be feff 55bd
000002a0: 36ca 353d d350 1d3e 733f 04be 780e 8c3d
000002b0: 3489 61be 1d32 013e 4e90 263d 21d5 bd3d
000002c0: 4965 95bd 9c8e 603e 2516 eb3d 17d7 70bd
000002d0: 9e59 4cbe ac34 82bd 7eb7 3abe aeaf 1abe
000002e0: 654e b1b9 7dcb 223d 04e9 893c e4fa 6ebe
000002f0: ca07 673e 5b07 063e 17b8 283e c9ad b3bd
00000300: 4d22 80be f43f 3b3e f549 283e 4c38 16be
00000310: 8b6a d0bc 3ea7 1abe 82c4 073e d94d 333e
00000320: 16e6 4abc a328 293d 3c27 48be 3b48 4fbe
00000330: 1562 bb3d a1e7 abbd ee0e 6ebe f33a 5fbe
00000340: 6e4a 673e ef68 0bbe 96e1 53be f97c 683e
00000350: 204e e03d 349e 043e fadd 673e c4ba 78bd
00000360: bf39 56bd 8b0f 90bd 364b 08bd 28b1 f83d
00000370: b705 543e c697 23be 8134 cebd 0e6f 1fbe
00000380: c02b 353e 9bb0 3f3e 26f9 2abe 25b8 00be
00000390: 61a0 803e 3d22 cebd 31ad 10be 03ec c4bd
000003a0: 79ec eabd 6c6c 173e 7845 06be 900e 583d
000003b0: e89f 463e d664 b83d ca5d c53b 5f50 843d
000003c0: ebc2 23bd d403 2b3e 7f14 97bd 9c07 403d
000003d0: f897 213e 5458 473e d582 2abe c390 e8bd
000003e0: 0a4c 023e fa74 51be 9639 12be 5a23 4dbe
000003f0: f315 083e 36f7 f93d ef65 0ebe f475 ed3c
0.15471111 -0.07689809 -0.06447695 -0.04062293 0.22299823 0.033958808 0.19902067 -0.11467447
0.03169185 -0.06598871 -0.06752949 -0.16689885 -0.17488185 -0.13569428 0.18772706 -0.1809643
0.12613297 0.04990514 -0.058775753 0.20304522 0.09025355 0.000111021356 0.1255331 -0.17614426
0.20680675 0.05957268 -0.16349438 -0.012703644 -0.016692443 -0.08558131 -0.14845331 -0.110873096
-0.18929967 -0.02874544 -0.14295353 -0.23333265 0.116554305 0.044608172 0.191463 0.043705724
0.1667986 0.098346114 0.14898658 0.023160854 0.13662124 -0.17010936 0.043298315 0.13530429
-0.061225016 0.15927716 0.06718237 -0.03893898 -0.007281103 -0.20889136 -0.1941751 0.041356433
0.083214074 0.25711727 -0.040474333 -0.027495671 0.15106261 0.023859734 -0.031615674 0.062371373
-0.03285629 0.093088344 0.20066686 -0.026859196 0.14202605 0.09849062 -0.15109655 0.061315943
0.09927901 -0.04114307 -0.09593367 0.020219887 -0.10708938 -0.13730432 0.07310538 -0.20603
-0.18727516 0.1071744 -0.109641016 0.24889316 -0.006625764 -0.2565799 -0.02800838 0.03761549
-0.0071869073 -0.103742585 -0.07684824 0.009565293 0.05554343 -0.17593534 -0.026314395 -0.24348234
-0.16610768 -0.12339511 0.19899797 0.026826195 0.01944105 -0.18828936 -0.08669366 -0.20285894
0.2199149 -0.06572431 -0.2103281 0.22317503 -0.026904786 0.23806189 -0.10219555 -0.026481625
0.13402879 0.2201281 -0.107478164 -0.073577784 -0.1009567 0.13766962 0.06270519 0.07371183
0.015648821 -0.18297492 -0.13814004 0.104548804 -0.19460884 0.21949977 -0.020334326 -0.00913252
-0.1353046 -0.0007136912 -0.041983753 0.016542727 0.19395791 -0.20986177 -0.10080399 0.15645117
0.04715026 0.047379497 0.053811643 -0.039855257 -0.21616775 0.072626464 0.24980801 -0.13109508
0.16563776 0.09377461 -0.18306768 0.115716696 -0.07337096 0.12727745 -0.06035372 -0.14921781
0.013861011 0.1668666 -0.12879322 0.065823615 -0.15406643 0.13845399 0.12557338 0.14833659
-0.18328798 -0.22893745 -0.023790587 0.001363903 0.05860511 -0.18030606 -0.2233119 -0.052246086
0.044382297 0.15362863 -0.12914829 0.06838697 -0.22024995 0.12616773 0.040664963 0.09269167
-0.07294709 0.21929401 0.11478833 -0.058798876 -0.19956061 -0.063577026 -0.18234059 -0.15106079
-0.0003381848 0.039744843 0.016834743 -0.23337895 0.22561565 0.13088743 0.16476475 -0.08773381
-0.2502617 0.18286115 0.16434462 -0.14669913 -0.025441429 -0.1510286 0.13258556 0.17510165
-0.012383958 0.04129852 -0.19546217 -0.20242397 0.09149567 -0.08393789 -0.23247883 -0.21799831
0.22586986 -0.13614248 -0.20691523 0.22703923 0.10952401 0.12950975 0.22643271 -0.06072499
-0.052301165 -0.070342146 -0.03327485 0.12143165 0.20705305 -0.15975866 -0.10068608 -0.15569708
0.1769247 0.18719713 -0.16696605 -0.12570246 0.2512236 -0.10065124 -0.14128567 -0.09615328
-0.11470885 0.14787453 -0.13112438 0.052748263 0.19396937 0.09003608 0.0060231434 0.06460642
-0.03998081 0.16700679 -0.07376956 0.046882257 0.15780628 0.19467288 -0.16651471 -0.11355736
0.12724319 -0.2045478 -0.1427978 -0.20033017 0.13289623 0.12205355 -0.13906072 0.028986908

bias f4 [64]
00000000: bb8f 4c3b 7437 79be 8b52 523e 6ee4 183e
00000010: 0b54 313d 6564 6c3d b283 34be 4221 d23c
00000020: caef 23bc b416 0e3e 30bb 3b3e 5708 57bd
00000030: d7a2 663d 3f2c aa3d 2c91 1abe 9f10 4abe
00000040: 707e d1bd 7a68 45be f16b 8a3d 464b eb3a
00000050: 7c00 4e3e 371e 29be 6cb3 db3d af93 713e
00000060: 9803 113e 2772 05be 36f7 173e c2ce 5bbd
00000070: 0c83 593e 4f35 8e3e 30e3 5cbe 409d 3b3e
00000080: 0fbd 98bd 838e f2bd 80f3 943d 1edc 783e
00000090: bb1c 5fbe b605 81be 76ef 693e 56af 963d
000000a0: e315 fb3d b543 1e3e 90e9 48bd f318 073e
000000b0: 3259 623d 6e8d 11be 25fc 313e 16f1 0abc
000000c0: 861e f33d 6450 773e c35c 183e 157c 3b3d
000000d0: 7258 d6bd 9e07 a53b 5a18 1bbe 047c 71be
000000e0: b0c4 cb3d 9300 50be bf47 57be ad17 54be
000000f0: de77 df3d d534 563e 029c 413e ee0e 37be
0.00312136 -0.2433756 0.205393 0.14930889 0.04329304 0.05771293 -0.17628363 0.025650624
-0.010005901 0.13875848 0.18333125 -0.052498188 0.05630764 0.083092205 -0.15094441 -0.19732903
-0.10229194 -0.19278136 0.067588694 0.001795151 0.20117372 -0.16515432 0.107275814 0.23591493
0.14161527 -0.13031827 0.14840397 -0.053663976 0.21241397 0.27775046 -0.2157104 0.18321705
-0.07457935 -0.11843588 0.072730064 0.24302718 -0.21788304 -0.2519967 0.22845253 0.073576614
0.12260034 0.15455516 -0.049050868 0.13193111 0.055260845 -0.14214107 0.17381342 -0.008480331
0.11871056 0.2415176 0.14879136 0.04577263 -0.10466088 0.0050363084 -0.15146008 -0.23582464
0.099496245 -0.20312719 -0.21023463 -0.20712157 0.10911535 0.20918591 0.18907169 -0.17876789

weight f4 [64, 64]
00000000: b8e5 273d ed0b a4bd 61b6 403d 56bf 383c
00000010: ad9e 09be 4915 a3bd 057b e73c 76a1 c2bd
00000020: 78b1 303d 31f5 05be 484d 443d 8b3f 7c3d
00000030: 3b02 9fbd c0db 72bd 0999 0ebd 17f4 b23d
00000040: 8a5d 9cbd e23f 4fbd ab8e bc3d 4e8f c93d
00000050: f982 a6bd 1e2b 9bbd e9b3 c6bd de90 613d
00000060: 72ea 053d 5699 e83d 42fc e73d f6b5 c53d
00000070: 17ae 0a3e d75b d3bd 62bb 02bc e7e6 9a3c
00000080: 6476 82bd 99e7 243d 0814 eebd aee9 ac3c
00000090: 4018 133a 465c a1bd 9abb 9cbd 762f 853d
000000a0: 47f2 083e 3ec5 ff3c 2e17 49bd 1490 a83c
000000b0: 84fc 053e 4f41 92bd 2a60 49bd 67f6 633c
000000c0: 1c2e c03c 1590 bd3d 7f6a 1e3d 139b 8c3d
000000d0: 0b25 aabc 9bbb dabd ca25 10be 0204 c1bc
000000e0: 00ef 733b 8fff 3fbd 59f9 93bd 3cb2 0dbe
000000f0: 4309 83bd 0294 df3d c17e c93d 5922 8abd
00000100: 7c21 493d b080 d9bd 95c0 a2bd b392 8d3d
00000110: 57cd ef3d 1076 82bd 9542 2dbd 1f87 0e3e
00000120: df8c aa3d 7167 6dbd 5264 a63d 18eb 4fbd
00000130: aa14 e63c d2bd 6dbc 35fa 053c 3874 e13b
00000140: 4ce5 2d3b 9c4c 0cbe 2649 b23d 9d63 3d3d
00000150: dab4 e63d aae0 35bd 2923 1fbd 30d4 c2bd
00000160: e0fe babd 4091 5abd 9b47 9c3d 3b14 babd
00000170: 369b d2bd d6a2 58bc 3075 843d 40f0 963d
00000180: 4a72 e03d f8f8 9d3c 9a7a 89bd 18fe 3f3d
00000190: 394f 8cbd 7cc9 1bbd 1b17 44b9 0326 cc3d
000001a0: fdc2 e3bc bb08 b73d 4152 95bd 40f0 04bd
000001b0: ec82 b0bd 8f9f 1fbd 8bb5 f7bc b8ae f93d
000001c0: 5bec ae3d f448 57bd e1ab c93d ded0 9a3d
000001d0: b7c8 d43d e0d7 013e e8eb 553c 2776 eebd
000001e0: d99a 1a3e 5df4 a4bd c5be c2bd 171b bdbd
000001f0: f8fd 29bd 57f0 633c 6caa 8b3d 0907 ec3d
00000200: 124b 6e3d 8622 61bd 34e5 06be 8309 663d
00000210: 127f 003e ab8b 7b3d 376d 8b3b a9e4 42bd
00000220: 645e 973d 61ff 0d3e 4701 ba3d 0b96 eebd
00000230: 72ca c43c 0e6f b83c 8cb1 30bd cf40 95bd
00000240: 568d 8e3d 9484 0dbe c20e 81bd 58c0 cbbd
00000250: 024c 16bd 400e cebd e13f b5bd bb77 c5bd
00000260: b2e3 b23d 8c4f aa3d 950a adbd a5a6 7dbc
00000270: 520b d33d 684c e03d ed38 d13c 93a3 a9bd
00000280: 6282 cfbd aabd 7f3c 8dea 81bd b81a d93a
00000290: f6ff fcbc fad8 94bd 5523 c43c 8788 9f3a
000002a0: fb11 503d 766e 87bd 87dd 7f3d f761 0b3e
000002b0: b52c 333d f869 80bd b557 5f3d 8dcd 093d
000002c0: 1026 28bd 5426 ddbd b9c2 8a3d 9e32 e13d
000002d0: 4d85 db3d d718 d93d 2b9e ef3d 6f70 28bd
000002e0: 965f 0c3c 0483 bc3d 8907 823d b88f b93d
000002f0: be69 34bd 6305 ca3d 9c38 9e3d 5c9f a23b
00000300: 4d3b ba3d 4f04 1bbc afc7 2f3d ff9d ebbb
00000310: 1396 8cbd de6c 183e 477b 58bc 4b05 9cbd
00000320: 73e7 dcbd 60a7 95bd 8b24 fb3d a1af 2e3d
00000330: 2638 8e3d bfa7 8f3d 505c a0bc 3f2f f53d
00000340: 9aca a93d 1d99 d3bc 766d b8bd 69a2 4d3d
00000350: f2c7 063e 21b9 a7bd 4624 f0bd 4b3c 8c3d
00000360: ee1e 04be 5075 b8bc c808 fc3d 8b93 2b3c
00000370: 4823 1d3d 7002 cd3c 949e 12bd 5945 783c
00000380: 1ae3 c0bd 1c45 313c 8863 0dbe 1c6c 80bd
00000390: e607 79bc f3db a43c be47 e43c c96d 9abd
000003a0: d9c8 fa3d 56af 0c3e 584b 73bd 070c 923d
000003b0: 045b 5d3d 33ea b3bd fb08 8bbc fe94 d33b
000003c0: 13f8 893b f63f 56bd b62c 023d 6c5c a63c
000003d0: 833f b1bd 88f0 10bd 2f07 b83d e888 1fbc
000003e0: 464f b33d 0628 2dbc e042 16bd a2af 843d
000003f0: 225c 273c 389f 8abd 840d 8bbb 4ef9 f0bd
0.04099056 -0.08010087 0.04704893 0.011276087 -0.13439436 -0.07963044 0.028256902 -0.095034525
0.043137997 -0.13081814 0.047925264 0.061584037 -0.07764097 -0.0592916 -0.034813914 0.08737963
-0.07635029 -0.050598033 0.09206899 0.09841786 -0.0813045 -0.07576583 -0.09702284 0.055069797
0.032694288 0.113573715 0.11327411 0.09653847 0.13542973 -0.103202514 -0.007979246 0.018908931
-0.063702375 0.04025993 -0.116249144 0.02110752 0.00056112185 -0.07878928 -0.0765297 0.06503193
0.13373671 0.031221982 -0.04909437 0.020576514 0.13084608 -0.07141363 -0.049163975 0.013913727
0.023459487 0.09255997 0.03867578 0.068655156 -0.020769617 -0.10680314 -0.14076915 -0.023561481
0.0037221313 -0.04687458 -0.07225294 -0.13837522 -0.06398251 0.10916902 0.098386295 -0.067448325
0.0491042 -0.10620248 -0.07946888 0.06912746 0.11709087 -0.06370175 -0.042299826 0.13918732
0.0832765 -0.057959978 0.08124603 -0.050761312 0.028086025 -0.014510589 0.00817733 0.0068803094
0.0026534377 -0.13701099 0.08705358 0.046237577 0.112649634 -0.04440371 -0.03885189 -0.09513128
-0.09130645 -0.053361177 0.07630845 -0.0908589 -0.102835104 -0.013222417 0.06467664 0.07370043
0.10959299 0.019283757 -0.067128375 0.046873182 -0.06851048 -0.038033947 -0.00018700624 0.09968188
-0.027802939 0.08937212 -0.07291079 -0.032455683 -0.08618721 -0.038970526 -0.030237934 0.12191528
0.08541175 -0.052559808 0.098472364 0.075593695 0.10389846 0.12680006 0.013056733 -0.116436295
0.15098132 -0.08054421 -0.09509043 -0.092336826 -0.04150197 0.013912282 0.06819615 0.11524779
0.05817706 -0.054964565 -0.13173372 0.056161415 0.12548473 0.061412495 0.004254963 -0.04758135
0.073910505 0.1386695 0.09082275 -0.11649712 0.024022315 0.022513893 -0.043138072 -0.07287752
0.069605514 -0.13820106 -0.06301643 -0.09948796 -0.03669358 -0.10061312 -0.088500746 -0.096419774
0.08734836 0.083159536 -0.08449284 -0.015481626 0.103048936 0.10952073 0.02553984 -0.082831524
-0.101322904 0.015609184 -0.06343565 0.0016563749 -0.03088377 -0.072679475 0.023942629 0.0012171426
0.050798398 -0.066128656 0.062467124 0.1361159 0.043743808 -0.06270212 0.054527003 0.033643294
-0.041051924 -0.10798326 0.06775422 0.109959826 0.107187845 0.10600441 0.1170009 -0.04112285
0.008567711 0.09204677 0.063490935 0.09060615 -0.044046156 0.09864309 0.07725641 0.004962845
0.09093342 -0.0094614765 0.042915042 -0.0071904655 -0.06864562 0.1488528 -0.013212985 -0.07618197
-0.10786333 -0.07307315 0.122628294 0.04264796 0.06944303 0.07014417 -0.019575268 0.11971902
0.08290596 -0.025829846 -0.09005253 0.050203715 0.1316221 -0.081896074 -0.117256686 0.068474375
-0.12902424 -0.022516876 0.123063624 0.010472189 0.038363725 0.025025576 -0.035795763 0.0151532525
-0.09418316 0.0108197 -0.138075 -0.0627062 -0.015199637 0.020124411 0.02786624 -0.07540471
0.1224534 0.1373876 -0.059398025 0.071312 0.054041877 -0.08784904 -0.016972056 0.0064569702
0.004210481 -0.05230709 0.03178092 0.020307742 -0.08654692 -0.03538564 0.08985745 -0.009737231
0.087553546 -0.010568624 -0.03668487 0.06478812 0.010214837 -0.0676865 -0.0042435545 -0.11766301

bias f4 [64]
00000000: 69a0 003e 1fc4 403d b838 b83d 862a 9e3d
00000010: 1bf7 96bd 51fa 5cbd 888f 5e3c 003c b539
00000020: 3e9f 1e3d 51fc 073e 5af4 c5bd f87f be3d
00000030: f3ef be3d 1f64 d6bd cb3a 3ebd 348c 243d
00000040: 883b b8bd 91a7 b3bd b3ac 633d a2eb b63c
00000050: a4e1 933c c18b fabd a7d3 643c 3982 38bd
00000060: c18d 2ebd 5b44 013e 76d5 ac3d ba48 09bd
00000070: 91e5 813d 2022 8cbc 0caa fcbd ccac e33d
00000080: ba3f d23d bcf7 b2bd ffd0 5dbb 108b 2bbc
00000090: 9c45 d93d 23af c33d 17e3 8dbc 5727 6b3d
000000a0: 98db cb3d d526 ce3d 6245 2abb 1426 7ebd
000000b0: 46dc f3bd 09a3 d53d bfb6 68bd 5a30 89bd
000000c0: 2d5e 3cbd 6a5b e7bd 45a7 9b3d c9b3 a23d
000000d0: 1cff 503d c539 3bbd d335 f93d 2f4d 58bd
000000e0: 7d8f 90bd d905 5f3d 235e ddbd b3c0 b33d
000000f0: 02f6 1dbd 89af f1bd f3f8 d73d 570f c43d
0.12561192 0.047062036 0.08995193 0.077229545 -0.073713504 -0.053949658 0.013584025 0.00034567714
0.038726084 0.13279845 -0.09665747 0.09301752 0.093231104 -0.10468315 -0.046442788 0.04017277
-0.0899573 -0.08772195 0.05558462 0.022329155 0.01805193 -0.12233687 0.0139664775 -0.045046065
-0.042615656 0.12623732 0.08439152 -0.033516623 0.063426144 -0.017106116 -0.12337121 0.11116943
0.10266061 -0.08738658 -0.0033846495 -0.010470167 0.1060898 0.09554889 -0.017320199 0.057410564
0.099539936 0.10066 -0.0025981297 -0.062048033 -0.11907248 0.10431487 -0.056814905 -0.066986755
-0.04598825 -0.11296733 0.076002635 0.079444475 0.05102454 -0.04570939 0.12168469 -0.052807983
-0.07058618 0.054448936 -0.10808971 0.08776989 -0.03856469 -0.11801059 0.1054553 0.09573238
