master_research/saved_model/models_dm_epo30.pth (torch, 121868 bytes, 25 tensors)

weight f4 [64, 17]
-0.2643636 -0.16151702 -0.102834545 0.22017667 -0.049266595 0.20505998 0.002262936 0.10477763
-0.09070167 -0.124577425 -0.21749474 0.15675384 0.14319977 0.08033401 -0.23898579 -0.0037698767
0.010639959 -0.15929185 -0.1610329 0.07059107 -0.13645552 0.020275388 -0.08243752 -0.11738941
0.19776505 -0.22629142 0.037495464 0.10907131 0.11136241 0.19433482 -0.1430835 0.1844845
-0.13655873 0.23195568 0.036060218 -0.19787693 0.0652998 -0.084658824 0.12421835 -0.02404454
0.11446068 -0.2587665 -0.027064357 -0.06541438 0.039414212 0.10225297 -0.2234746 -0.029008565
0.11688487 -0.021167567 0.19119228 0.17844586 0.034133706 0.19546805 0.24605606 0.1495082
0.16561522 0.2716779 -0.14434937 0.1901011 -0.1715109 -0.16471612 -0.22974846 -0.15308288
-0.11630507 -0.11543088 -0.04413225 0.11462291 -0.2877266 0.026416417 -0.025533441 0.120272785
0.07929162 -0.03303334 -0.09310801 0.18844038 0.076448955 -0.10871477 -0.023334146 -0.17621757
-0.14265566 -0.18208157 0.21803685 0.11359695 0.22100493 -0.2836003 0.027360741 -0.06304572
0.01608207 -0.0840694 -0.20649743 0.15861128 0.04916483 -0.07488178 0.037123676 -0.041886225
0.07737194 -0.058285225 -0.23325492 -0.2445118 -0.04529305 -0.09332675 0.25775203 0.14278328
0.20808369 -0.13696189 0.123908035 -0.19071044 -0.019971881 0.2129452 -0.025997229 -0.1808215
0.07785488 0.08782866 0.15525523 0.0065120915 -0.23931138 0.07363827 0.21292022 0.042597722
0.06765036 0.21104787 -0.032207437 -0.0979828 0.17890364 0.021288712 -0.17962718 -0.18144637
-0.09526584 -0.13730526 0.22760355 0.16885868 -0.041756224 -0.06805384 0.15820292 0.19711581
-0.20693049 0.09140248 0.16344532 -0.09329538 -0.039406855 -0.07220443 -0.17006749 0.22855596
-0.0373714 -0.008029614 -0.15655135 0.11821228 0.0058595906 0.0960052 -0.20119403 -0.09006373
0.07222928 0.13645265 0.005786289 0.2235726 -0.23498322 -0.09353932 -0.017819844 0.18391252
-0.17965804 -0.19047207 -0.15171781 -0.009918927 0.055617057 -0.029181045 0.10779683 -0.2075789
0.115358986 -0.03801114 -0.0908956 -0.16484413 -0.16612948 -0.2207251 0.10391641 -0.16066156
0.06637694 -0.26474154 -0.141229 -0.0029318384 -0.0085600605 -0.15276931 -0.04398571 0.23242545
0.21539842 -0.20070052 0.15918425 -0.12016687 0.09716766 -0.05431645 0.1191967 -0.010493395
0.18907732 -0.21491101 -0.059227414 -0.029439991 0.23852232 -0.05624113 0.15616666 -0.07390452
-0.151743 0.0443262 0.1770219 0.099078834 -0.23615487 -0.13847768 -0.019304534 0.053206764
0.08375701 -0.21411237 0.19800939 -0.06763747 -0.09789976 -0.014093142 0.082645334 0.08747029
0.042432785 -0.13101946 -0.18735155 -0.16207463 -0.08357878 -0.24672286 -0.1410094 0.21414842
-0.18624726 -0.18731248 0.22104116 0.026488971 -0.114142895 0.17823328 0.24558863 -0.03875123
-0.10326456 0.2257066 0.19712192 0.14465459 -0.14216177 -0.2124598 0.010404094 0.22255789
-0.077831626 -0.13016103 -0.10738153 -0.25118548 -0.010928526 0.17954344 0.18876016 0.0055725146
0.00025048162 -0.24506322 0.04911289 -0.1026401 -0.022955872 0.14126536 -0.17724016 -0.29076853
00000000: aa5a 87be b864 25be eb9a d2bd fe75 613e
00000010: c5cb 49bd 3efb 513e c44d 143b a795 d63d
00000020: ccc1 b9bd 7322 ffbd f1b6 5ebe 1484 203e
00000030: f6a2 123e 2886 a43d b1b8 74be 0910 77bb
00000040: 3953 2e3c 671d 23be cfe5 24be 0d92 903d
00000050: ffba 0bbe 9218 a63c 01d5 a8bd dc69 f0bd
00000060: ec82 4a3e f0b8 67be d894 193d c760 df3d
00000070: fa11 e43d b5ff 463e 7b84 12be 81e9 3c3e
00000080: 0dd6 0bbe ca85 6d3e e1b3 133d 40a0 4abe
00000090: e7bb 853d 9b61 adbd 3166 fe3d 0ef9 c4bc
000000a0: 5c6a ea3d 0b7d 84be 12b6 ddbc f9f7 85bd
000000b0: cc70 213d 016a d13d 87d6 64be 5fa3 edbc
000000c0: 5661 ef3d 9b67 adbc e9c7 433e 83ba 363e
000000d0: c9cf 0b3d c728 483e 1ff6 7b3e ad18 193e
000000e0: 0997 293e 5e19 8b3e 52d0 13be dda9 423e
000000f0: 8ea0 2fbe 58ab 28be 2e43 6bbe c2c1 1cbe
00000100: 5a31 eebd 0667 ecbd 05c4 34bd 6bbf ea3d
00000110: e750 93be 3e67 d83c 822b d1bc 9451 f63d
00000120: a563 a23d f84d 07bd 6aaf bebd 84f6 403e
00000130: 4591 9c3d d9a5 debd 4027 bfbc 6172 34be
00000140: 5314 12be 9773 3abe 0d45 5f3e 85a5 e83d
00000150: 1e4f 623e 0f34 91be a223 e03c 1d1e 81bd
00000160: 8cbe 833c 942c acbd 1074 53be ff6a 223e
00000170: 1061 493d 9e5b 99bd ff0e 183d e490 2bbd
00000180: 2e75 9e3d 7dbc 6ebd 61da 6ebe 4d61 7abe
00000190: 3585 39bd 1822 bfbd 13f8 833e c835 123e
000001a0: e413 553e bd3f 0cbe 7fc3 fd3d 9949 43be
000001b0: 129c a3bc 4e0e 5a3e 24f8 d4bc 4529 39be
000001c0: 6172 9f3d 83df b33d 3afb 1e3e 6263 d53b
000001d0: 0b0e 75be a9cf 963d c207 5a3e f37a 2e3d
000001e0: 468c 8a3d ef1c 583e f2eb 03bd 35ab c8bd
000001f0: 8432 373e aa65 ae3c 30f0 37be 14cd 39be
00000200: bd1a c3bd c099 0cbe e810 693e 4ae9 2c3e
00000210: 9308 2bbd d05f 8bbd f2ff 213e bad8 493e
00000220: 96e5 53be 3931 bb3d 365e 273e a611 bfbd
00000230: 1569 21bd ebdf 93bd 2c26 2ebe 930a 6a3e
00000240: c112 19bd a48e 03bc ff4e 20be 4819 f23d
00000250: cf01 c03b 609e c43d cf05 4ebe 5573 b8bd
00000260: f2ec 933d 3eba 0b3e e99a bd3b 37f0 643e
00000270: 719f 70be 8b91 bfbd ecfa 91bc 9053 3c3e
00000280: 47f8 37be 1c0b 43be ea5b 1bbe ff82 22bc
00000290: b6ce 633d 160d efbc 96c4 dc3d 908f 54be
000002a0: 5541 ec3d 92b1 1bbd 7927 babd e6cc 28be
000002b0: d91d 2abe c305 62be 20d2 d43d 7784 24be
000002c0: a2f0 873d 348c 87be 569e 10be 1624 40bb
000002d0: 7f3f 0cbc 8f6f 1cbe 5c2a 34bd f000 6e3e
000002e0: 6791 5c3e 7084 4dbe 3201 233e 0c1a f6bd
000002f0: d7ff c63d ed7a 5ebd 661d f43d 7dec 2bbc
00000300: 7c9d 413e a211 5cbe 7298 72bd 232c f1bc
00000310: 323f 743e 195d 66bd 27ea 1f3e 415b 97bd
00000320: 8462 1bbe 648f 353d 3b45 353e d8e9 ca3d
00000330: 95d2 71be 18cd 0dbe 8b24 9ebc 56ef 593d
00000340: cc88 ab3d 4640 5bbe f9c2 4a3e 8485 8abd
00000350: ab7f c8bd ece6 66bc f541 a93d a023 b33d
00000360: 00ce 2d3d f729 06be 16d9 3fbe e4f6 25be
00000370: 5a2b abbd eba4 7cbe c564 10be b949 5b3e
00000380: 9ab7 3ebe d8ce 3fbe 9d58 623e 66ff d83c
00000390: c0c3 e9bd c982 363e 967b 7b3e 9cb9 1ebd
000003a0: 5f7c d3bd a21f 673e 54da 493e 5520 143e
000003b0: db92 11be 108f 59be ef75 2a3c 37e6 633e
000003c0: 3066 9fbd ef48 05be d9ea dbbd 629b 80be
000003d0: 8f0d 33bc 3cda 373e 584a 413e a499 b63b
000003e0: 1353 8339 daf1 7abe 992a 493d f934 d2bd
000003f0: f40d bcbc dea7 103e 727e 35be 9ddf 94be

bias f4 [64]
0.03185326 -0.108296104 -0.045984875 -0.12185388 0.067430876 0.17714895 -0.067917235 -0.11864133
0.036112264 0.18600634 0.16062364 0.24866106 -0.029935548 -0.023023479 -0.044208705 0.2545232
-0.1772076 0.123735525 0.10093583 0.039144214 0.09105159 -0.13864623 0.08864651 -0.1243181
-0.09433681 -0.1993068 -0.19258629 0.04166198 -0.082781024 0.08921081 0.22854133 0.15400343
-0.18904243 0.059596352 -0.17787525 0.1901241 0.14754052 0.2308218 0.24564444 -0.2243435
-0.12351551 -0.13582137 0.004623623 0.0107546495 -0.032619078 -0.17862171 -0.034948424 -0.15563823
0.20982015 -0.10400654 -0.14652224 -0.22007248 0.02816471 0.15816958 -0.19770008 0.11223712
-0.112378776 -0.17885862 -0.046735447 0.15608388 0.20271665 0.078677386 0.14927387 0.22387585
00000000: 9078 023d 59ca ddbd a35a 3cbd 878e f9bd
00000010: 3319 8a3d 8966 353e 3118 8bbd 3afa f2bd
00000020: 74ea 133d 7278 3e3e 867a 243e 01a1 7e3e
00000030: 653b f5bc bc9b bcbc 3014 35bd dd50 823e
00000040: e975 35be 0d69 fd3d 72b7 ce3d af55 203d
00000050: 4279 ba3d 47f9 0dbe 4d8c b53d 7d9a febd
00000060: a833 c1bd 1517 4cbe 5735 45be c1a5 2a3d
00000070: 1989 a9bd 28b4 b63d bd06 6a3e 13b3 1d3e
00000080: 5794 41be 4e1b 743d ee24 36be e4af 423e
00000090: dd14 173e 8d5c 6c3e 378a 7b3e 4dba 65be
000000a0: b3f5 fcbd c214 0bbe c381 973b 4534 303c
000000b0: 959b 05bd 9ce8 36be 1426 0fbd a15f 1fbe
000000c0: 18db 563e 6101 d5bd ed09 16be ae5a 61be
000000d0: aeb9 e63c 35f7 213e e471 4abe 93dc e53d
000000e0: d826 e6bd b726 37be ab6d 3fbd 74d4 1f3e
000000f0: f494 4f3e 9c21 a13d 40db 183e b63f 653e

weight f4 [64, 64]
-0.033785157 0.104978256 -0.06445557 -0.07162815 0.09737106 0.07800237 -0.09911504 0.059582595
-0.14336413 -0.10465322 0.026662856 -0.055770665 -0.087456495 -0.05229826 0.09973323 0.083540775
0.019928435 -0.08691087 -0.0029534202 0.035903234 -0.0061206347 0.0671748 0.011552893 -0.10929027
-0.01849014 -0.11605156 0.055708647 -0.13400078 0.14038153 0.12907533 -0.1118078 -0.0018740429
0.07772714 -0.03692774 0.11729043 -0.11131457 0.055481624 0.06081702 0.08902527 0.013144942
0.0050339885 0.059284072 0.04233607 -0.019148815 -0.093518816 0.032154094 -0.12546146 0.124748476
0.022987533 -0.11069874 -0.04884 -0.11961654 -0.12294967 -0.10077184 -0.061276373 0.116761215
0.07928163 -0.09653949 0.108049266 0.019803395 0.013782791 -0.042130172 0.0075322273 -0.13000038
-0.09942569 0.0524902 0.08820101 0.078813285 -0.031960297 -0.09628173 0.04566388 0.070897326
0.054828797 0.06519817 0.036458343 -0.054794382 0.07134947 0.00684929 0.11014815 0.022067009
0.02671312 -0.08441441 0.057059865 0.089923956 -0.10103159 -0.13094716 -0.08673437 0.057565305
-0.11191427 -0.10641698 -0.020605842 -0.039942767 -0.09433766 0.06303232 0.0010046695 -0.1003064
-0.11733295 -0.022426974 0.111361854 0.0020329417 -0.036745846 -0.11846488 0.0072246776 0.10648535
0.10554301 0.043017823 0.1145447 0.004034134 -0.012362594 -0.11568708 0.0861985 0.121231176
0.03861724 -0.05684265 0.09794182 -0.0807233 -0.03756569 0.045429 0.00071774225 0.097701
-0.08163996 0.10532439 -0.09144653 0.09721987 -0.05387797 -0.077773444 0.08071455 0.016109541
0.020140087 -0.14126326 -0.0040464774 0.015270959 -0.042835284 0.041683618 0.118485086 0.08101112
0.025774881 0.06449801 0.10380291 0.06188079 0.011429982 -0.06581108 0.011873474 0.027694412
-0.04040634 0.13769163 0.057216838 -0.09471762 0.07789201 -0.03487861 0.05749284 0.063399196
0.019173548 0.02266891 -0.13082938 -0.04875786 -0.053308915 0.121136025 -0.06477318 -0.076893486
0.11823368 0.12231967 0.09452814 0.06770311 -0.026874663 -0.01428171 0.05153547 -0.05744042
0.07774689 -0.05244248 -0.1061533 0.12329388 -0.018215563 -0.12615362 0.13060361 0.11481197
-0.12994531 -0.08941018 -0.02082719 -0.021125596 0.053562663 -0.03578762 -0.06498088 -0.010733029
-0.07878843 -0.02578323 0.07664394 0.109140456 -0.11256385 0.11011496 -0.049458005 0.057994857
0.11694625 0.14451773 0.028496489 0.07969426 -0.07433772 -0.0975756 -0.09711825 -0.09032451
-0.08970912 -0.13400628 -0.026696084 0.115475126 -0.08933487 0.0013609787 -0.13701047 0.018392507
0.037143495 -0.09260579 0.0772363 0.088290684 -0.118548445 -0.09491082 0.059634577 0.10817575
-0.06358447 -0.11043171 -0.10653477 0.08581223 -0.047559347 0.031537022 -0.007377643 0.0028853312
-0.05305098 0.0647354 -0.092432395 -0.039548136 0.073819816 -0.10418876 0.1207117 -0.075307615
-0.046403807 -0.1134454 -0.04594418 0.102831446 -0.009210474 0.008768279 0.080415644 0.055436164
-0.06339466 -0.046204124 0.018886056 -0.0036433197 0.049118802 -0.105264984 -0.012555784 0.032677546
-0.022041813 0.015565192 0.032813862 -0.022167757 -0.011522022 -0.10954356 -0.09408496 -0.01025261
00000000: 4e62 0abd d7fe d63d 4801 84bd c8b1 92bd
00000010: 7a6a c73d b5bf 9f3d d3fc cabd e10c 743d
00000020: 0cce 12be 6d54 d6bd 106c da3c c86f 64bd
00000030: 641c b3bd b336 56bd f040 cc3d 6d17 ab3d
00000040: f540 a33c 54fe b1bd 2b8e 41bb 450f 133d
00000050: 9b8f c8bb f192 893d 5848 3d3c 94d3 dfbd
00000060: a278 97bc 71ac edbd c02e 643d 8037 09be
00000070: 2dc0 0f3e 532c 043e 7dfb e4bd 72a2 f5ba
00000080: 682f 9f3d 8b41 17bd f735 f03d e5f8 e3bd
00000090: b340 633d 441b 793d e152 b63d e25d 573c
000000a0: 28f4 a43b dbd3 723d 9668 2d3d fadd 9cbc
000000b0: cb86 bfbd 03b4 033d f878 00be 217c ff3d
000000c0: 5a50 bc3c 05b6 e2bd 740c 48bd 84f9 f4bd
000000d0: 09cd fbbd 7761 cebd effc 7abd 8120 ef3d
000000e0: 685e a23d 7fb6 c5bd ef48 dd3d bb3a a23c
000000f0: 37d1 613c b090 2cbd e7d0 f63b d21e 05be
00000100: b29f cbbd f7ff 563d bba2 b43d dc68 a13d
00000110: cde8 02bd 5b2f c5bd 0c0a 3b3d 9e32 913d
00000120: 2994 603d 9e86 853d 5855 153d 1370 60bd
00000130: ac1f 923d 0270 e03b 5a95 e13d dfc5 b43c
00000140: 79d5 da3c 76e1 acbd 9bb7 693d 0d2a b83d
00000150: a6e9 cebd 0317 06be caa1 b1bd 99c9 6b3d
00000160: 4f33 e5bd 25f1 d9bd 95cd a8bc 079b 23bd
00000170: 1a34 c1bd 1717 813d 1daf 833a 716d cdbd
00000180: 424c f0bd c6b8 b7bc af11 e43d 1a3b 053b
00000190: d082 16bd b79d f2bd fdbc ec3b fe14 da3d
000001a0: ef26 d83d 7533 303d 6996 ea3d c530 843b
000001b0: 7a8c 4abc 59ed ecbd d788 b03d 0d48 f83d
000001c0: 1c2d 1e3d d7d3 68bd b995 c83d 4252 a5bd
000001d0: 7bde 19bd c213 3a3d de26 3c3a 7617 c83d
000001e0: da32 a7bd 50b4 d73d 5148 bbbd 361b c73d
000001f0: 25af 5cbd af47 9fbd ac4d a53d 28f8 833c
00000200: d3fc a43c 51a7 10be 5098 84bb 0b33 7a3c
00000210: 0d74 2fbd 71bc 2a3d 4fa8 f23d 28e9 a53d
00000220: d825 d33c 8817 843d 9f96 d43d b676 7d3d
00000230: d244 3b3c f6c7 86bd f688 423c 64df e23c
00000240: 1e81 25bd 09ff 0c3e 345c 6a3d 50fb c1bd
00000250: d985 9f3d e0dc 0ebd 9d7d 6b3d 70d7 813d
00000260: d811 9d3c 26b4 b93c 23f8 05be 52b6 47bd
00000270: 735a 5abd 2a16 f83d cda7 84bd 557a 9dbd
00000280: 8024 f23d bc82 fa3d f897 c13d eea7 8a3d
00000290: 4128 dcbc d5fd 69bc db16 533d a546 6bbd
000002a0: c339 9f3d edcd 56bd e766 d9bd 8081 fc3d
000002b0: ce38 95bc 6a2e 01be f4bc 053e 8a22 eb3d
000002c0: 6210 05be af1c b7bd c89d aabc 960f adbc
000002d0: 8664 5b3d 0a96 12bd b214 85bd 96d9 2fbc
000002e0: d45b a1bd 5a37 d3bc 7ff7 9c3d 0885 df3d
000002f0: e087 e6bd f483 e13d 7a94 4abd 048c 6d3d
00000300: 8481 ef3d 75fc 133e 7871 e93c bf36 a33d
00000310: 603e 98bd b7d5 c7bd efe5 c6bd 0ffc b8bd
00000320: 6ab9 b7bd f138 09be bfb1 dabc 397e ec3d
00000330: 33f5 b6bd de62 b23a 794c 0cbe e2ab 963c
00000340: c723 183d 1ba8 bdbd 112e 9e3d bfd1 b43d
00000350: 87c9 f2bd 9b60 c2bd 6343 743d 3f8b dd3d
00000360: 9338 82bd 052a e2bd e72e dabd 53be af3d
00000370: 97cd 42bd f72c 013d 28c0 f1bb d317 3d3b
00000380: fc4b 59bd fe93 843d 324d bdbd 3afd 21bd
00000390: d82e 973d eb60 d5bd b237 f73d e13a 9abd
000003a0: eb11 3ebd 1056 e8bd f72f 3cbd 4b99 d23d
000003b0: 87e7 16bc d4a8 0f3c f5b0 a43d 0811 633d
000003c0: 0fd5 81bd 8940 3dbd eeb6 9a3c c3c4 6ebb
000003d0: cc30 493d 2b95 d7bd c6b6 4dbc e4d8 053d
000003e0: 0891 b4bc 2605 7f3c d467 063d 2899 b5bc
000003f0: ddc6 3cbc 6058 e0bd 9eaf c0bd 90fa 27bc

bias f4 [64]
0.013735177 -0.025682181 -0.0060610743 -0.12326688 0.039424974 0.03028825 0.056814894 -0.12364894
0.12000951 0.11691056 -0.0067475727 -0.08560041 -0.04518424 0.08583109 -0.0125686135 -0.00090704765
0.09476319 0.035022303 -0.087138206 0.09737141 0.093515165 0.0014592477 0.07374662 0.09792477
0.014084647 0.10478748 0.008085362 -0.064811125 -0.075497776 0.093981884 0.12750544 -0.09593949
-0.060996335 0.07381046 0.10873547 0.114962794 0.035785902 -0.0759381 -0.018937947 -0.1355265
0.05172651 0.112646446 0.0015907926 0.058564786 0.021870887 0.1407172 -0.026200818 -0.1049542
0.009381203 -0.052213788 -0.014130808 0.06448462 0.112025455 0.08418236 0.08314603 0.06944498
0.041345093 -0.08818845 0.08974765 -0.018308101 0.06549817 0.019348418 0.054310802 -0.111465424
00000000: 8209 613c 7063 d2bc fa9b c6bb 5973 fcbd
00000010: 157c 213d 101f f83c bcb6 683d a83b fdbd
00000020: 8cc7 f53d ce6e ef3d be1a ddbb 454f afbd
00000030: 1c13 39bd 36c8 af3d 96ec 4dbc f0c6 6dba
00000040: 3413 c23d 8c73 0f3d 8475 b2bd a96a c73d
00000050: e184 bf3d 3a44 bf3a 7808 973d c88c c83d
00000060: 4bc3 663c d19a d63d 7778 043c b2bb 84bd
00000070: 949e 9abd 9379 c03d c990 023e ec7b c4bd
00000080: 4bd7 79bd f029 973d b4b0 de3d 9d71 eb3d
00000090: 3d94 123d 6f85 9bbd c123 9bbc 75c7 0abe
000000a0: 2ddf 533d 2eb3 e63d 2482 d03a a1e1 6f3d
000000b0: 932a b33c 2b18 103e 19a3 d6bc 3af2 d6bd
000000c0: 9eb3 193c 20de 55bd e884 67bc 8310 843d
000000d0: 9a6d e53d cd67 ac3d 7748 aa3d 2b39 8e3d
000000e0: 7959 293d 259c b4bd 9ecd b73d dffa 95bc
000000f0: e823 863d 9380 9e3c 0175 5e3d fc47 e4bd

weight f4 [1, 64]
0.05184289 0.016714673 0.12149687 -0.059335258 -0.051385675 0.022086471 -0.048239652 -0.046523128
-0.06573443 0.064382866 -0.12338808 -0.11572348 -0.087153405 -0.14530613 -0.1421082 0.013013786
0.13682798 -0.1471814 0.110314004 0.13700874 -0.0781716 -0.10639551 0.102185085 0.08125228
-0.0679825 -0.10466255 0.08204941 -0.03825359 0.13152473 -0.092139326 0.09018884 -0.08377709
-0.15211062 -0.090569265 -0.07360987 -0.13269432 -0.06321631 0.1005743 0.10958289 0.065422624
0.14072771 0.034152634 0.062187444 -0.07160495 -0.15536387 0.1652778 0.14335184 0.11196887
0.09502644 -0.112687334 0.12194025 0.08751734 -0.026123445 0.09109427 -0.14184026 0.14800456
-0.043641254 -0.14911631 -0.051939286 0.13692088 -0.08489823 0.16051514 -0.00037219652 0.0145455105
00000000: 3659 543d 36ed 883c 5ad3 f83d 8709 73bd
00000010: c979 52bd b0ee b43c f196 45bd 098f 3ebd
00000020: c69f 86bd 2adb 833d e4b2 fcbd 6f00 edbd
00000030: 7c7d b2bd 21cb 14be d084 11be c637 553c
00000040: a21c 0c3e b9b6 16be 4fec e13d 054c 0c3e
00000050: 6f18 a0bd e4e5 d9bd 6a46 d13d 9867 a63d
00000060: 693a 8bbd 5259 d6bd 8509 a83d ccaf 1cbd
00000070: 6bae 063e 8bb3 bcbd edb4 b83d 5393 abbd
00000080: e3c2 1bbe 617c b9bd c6c0 96bd 05e1 07be
00000090: 8e77 81bd e6f9 cd3d ff6c e03d 4cfc 853d
000000a0: ed1a 103e a2e3 0b3d 43b8 7e3d 9ea5 92bd
000000b0: b517 1fbe 953e 293e d3ca 123e ef4f e53d
000000c0: 399d c23d 9ec8 e6bd cfbb f93d 4b3c b33d
000000d0: d600 d6bc a28f ba3d 933e 11be 828e 173e
000000e0: 2cc1 32bd f2b1 18be 4abe 54bd fd34 0c3e
000000f0: 20df adbd 155e 243e 5f23 c3b9 4b50 6e3c

weight f4 [64, 17]
-0.024697725 -0.028941577 0.22853276 -0.107318 -0.1278874 0.104589514 -0.13833067 0.24152078
0.13957763 0.0849684 0.16616173 -0.23053317 -0.17916638 -0.18044215 -0.11320021 0.08643768
0.24144112 -0.19504064 0.09854531 0.05057897 0.21734776 0.051640697 0.041618954 0.19851306
0.18514894 0.15870576 0.042613465 0.06684272 -0.20571777 0.2541725 0.21174607 -0.1640604
-0.19152908 -0.12810792 0.22511473 -0.070967436 0.12251767 0.052628644 0.18600515 0.08038065
-0.030625455 0.2161513 -0.18345232 -0.064590156 -0.18578614 -0.14260744 -0.10495723 0.13762245
0.123734646 0.035660937 -0.07480301 -0.095791124 0.042558096 -0.12547803 0.20753619 -0.07855503
-0.1265996 -0.07106719 -0.23205088 -0.17405513 -0.091538414 0.013750142 0.18880829 -0.15508558
0.13660392 -0.23979329 0.12261174 -0.22027019 0.29003435 -0.2070847 -0.21756901 0.120496586
0.20095813 -0.075079225 -0.038752362 0.28603926 -0.051741026 -0.12022725 0.1224748 0.10939073
-0.21817024 -0.12004796 -0.038699865 0.07990855 -0.11588764 -0.2961748 -0.02499941 0.01682012
-0.14798416 0.029726483 0.14328212 0.026795082 0.23658372 -0.069295965 0.05610326 0.18055782
0.08667834 -0.028328499 0.15345219 -0.009015782 0.23250912 0.2500753 -0.30227783 -0.2040555
0.21219893 0.024507293 0.09651565 0.22696793 0.164182 -0.07314304 -0.04060001 -0.12182363
-0.18885596 -0.101211734 -0.08491819 0.09223603 -0.20601179 0.13173053 -0.0586568 -0.12455693
-0.07997355 -0.21431188 -0.1586713 -0.21772805 0.052287407 -0.21672554 -0.023697207 -0.21830529
-0.06368466 -0.20172094 -0.13507272 0.11204898 0.18736285 0.16748525 0.016872576 -0.013707815
-0.029988322 -0.10386642 -0.10639587 -0.024154382 -0.15477505 -0.24381335 -0.045872554 0.20619333
0.043898225 0.040919956 -0.08851873 0.18418516 -0.14249913 -0.16780214 -0.036954455 0.16244374
-0.04575902 0.29216847 -0.02450385 0.07108253 -0.05384987 0.179511 -0.05137299 0.2127817
0.28925 0.008990817 -0.04616924 -0.2265617 -0.22500612 0.03377628 0.14207038 0.2004853
-0.13189346 -0.061420493 0.11281215 -0.13640091 -0.02228105 -0.06673845 0.05133528 -0.1749562
0.15027827 0.06524249 0.28046244 -0.034325637 -0.06260997 0.0226101 0.04781358 0.019429253
-0.062127184 0.086157724 0.24149586 0.061273888 -0.0016551656 0.09090134 0.095140725 0.18947536
-0.08233239 0.0044430555 0.21391623 -0.19624315 0.04995051 0.12819636 0.20454179 -0.11587813
0.0049284277 -0.011649065 -0.030893037 -0.07111252 0.28127512 0.011766466 -0.11250707 0.22062448
0.03645029 -0.08452553 -0.09783659 -0.08130483 -0.1396301 -0.17425309 0.049339198 0.2240215
0.24920249 0.10071416 -0.10893569 0.14133301 -0.18238717 -0.015966745 -0.15929423 0.08087465
0.19477275 -0.010960089 0.14007342 -0.19677964 -0.24381216 0.0325618 -0.011064827 0.20958784
-0.16495411 0.2271628 0.20818718 -0.15669462 0.11592928 -0.024871483 0.17692822 0.22101721
0.17098865 -0.13579147 -0.20255812 0.21565479 0.2358801 0.22205515 0.25328925 -0.064717636
0.25056744 -0.14822438 0.14800943 0.015216955 -0.20422943 0.12674348 0.12215086 -0.10619497
00000000: e252 cabc e316 edbc 7e04 6a3e 8ac9 dbbd
00000010: eaf4 02be 0733 d63d 8ea6 0dbe 3951 773e
00000020: 70ed 0e3e ea03 ae3d 4d26 2a3e e310 6cbe
00000030: 6477 37be d4c5 38be 83d5 e7bd 3d06 b13d
00000040: 573c 773e bcb8 47be 20d2 c93d e52b 4f3d
00000050: 6990 5e3e 3285 533d a378 2a3d 0247 4b3e
00000060: af97 3d3e c383 223e 758b 2e3d d6e4 883d
00000070: aea7 52be e622 823e f6d3 583e 73ff 27be
00000080: 3320 44be b92e 03be 7a84 663e 6057 91bd
00000090: 8bea fa3d 2291 573d 2278 3e3e 9c9e a43d
000000a0: 3ce2 fabc c456 5d3e edda 3bbe d847 84bd
000000b0: b93e 3ebe af07 12be d1f3 d6bd e6ec 0c3e
000000c0: 9768 fd3d 3411 123d 5232 99bd 232e c4bd
000000d0: 6651 2e3d 507d 00be 5e84 543e 76e1 a0bd
000000e0: 53a3 01be ad8b 91bd bf9e 6dbe 823b 32be
000000f0: 7e78 bbbd 4748 613c f656 413e c1ce 1ebe
00000100: e6e1 0b3e 5f8c 75be dd1b fb3d 828e 61be
00000110: 627f 943e 030e 54be 69ca 5ebe eac6 f63d
00000120: f8c7 4d3e 23c3 99bd ccba 1ebd bd73 923e
00000130: 66ee 53bd b439 f6bd 11d4 fa3d 3f08 e03d
00000140: 0568 5fbe b4db f5bd c083 1ebd 18a7 a33d
00000150: 8056 edbd 39a4 97be 90cb ccbc 59ca 893c
00000160: 2989 17be f484 f33c 8cb8 123e 5c81 db3c
00000170: 0143 723e 0beb 8dbd 88cc 653d 26e4 383e
00000180: 6a84 b13d 2b11 e8bc 9222 1d3e eeb6 13bc
00000190: df16 6e3e df09 803e 29c4 9abe edf3 50be
000001a0: ad4a 593e 85c3 c83c ffa9 c53d 486a 683e
000001b0: 541f 283e 05cc 95bd 324c 26bd ab7e f9bd
000001c0: 7563 41be 1948 cfbd 97e9 adbd 3ee6 bc3d
000001d0: c1f4 52be 5ee4 063e 1d42 70bd b417 ffbd
000001e0: 2cc9 a3bd 9374 5bbe bb7a 22be 1af4 5ebe
000001f0: 522b 563d 4ded 5dbe a520 c2bc 6c8b 5fbe
00000200: 1a6d 82bd ef8f 4ebe 8150 0abe f079 e53d
00000210: 0cdc 3f3e 4181 2b3e 5b38 8a3c be96 60bc
00000220: 12aa f5bc ebb7 d4bd 14e6 d9bd 69df c5bc
00000230: 5a7d 1ebe 35aa 79be dce4 3bbd 5824 533e
00000240: a0ce 333d af9b 273d 4f49 b5bd 099b 3c3e
00000250: 4beb 11be 53d4 2bbe 8e5d 17bd a757 263e
00000260: cf6d 3bbd 1b97 953e 4cbc c8bc b893 913d
00000270: ae91 5cbd bbd1 373e 7c6c 52bd 72e3 593e
00000280: 9318 943e 384e 133c f51b 3dbd caff 67be
00000290: 0168 66be ff58 0a3d e67a 113e 054c 4d3e
000002a0: 140f 07be 0e94 7bbd 0e0a e73d aeac 0bbe
000002b0: c086 b6bc 2bae 88bd f144 523d b827 33be
000002c0: 8ce2 193e db9d 853d c698 8f3e 0a99 0cbd
000002d0: a839 80bd d138 b93c 2cd8 433d 192a 9f3c
000002e0: 1379 7ebd 7673 b03d b14a 773e 54fa 7a3d
000002f0: 24f2 d8ba 7b2a ba3d 24d9 c23d d405 423e
00000300: e29d a8bd 0d97 913b db0c 5b3e f7f3 48be
00000310: e898 4c3d e845 033e 6773 513e 8351 edbd
00000320: a67e a13b b8db 3ebc 6513 fdbc 71a3 91bd
00000330: 4b03 903e 23c8 403c 1b6a e6bd 62eb 613e
00000340: e64c 153d b91b adbd 8d5e c8bd 2683 a6bd
00000350: 31fb 0ebe 676f 32be e617 4a3d e465 653e
00000360: f02e 7f3e 3a43 ce3d ad19 dfbd 9ab9 103e
00000370: b4c3 3abe b1cc 82bc 071e 23be 9ca1 a53d
00000380: 8272 473e f291 33bc 686f 0f3e 9a80 49be
00000390: e5a9 79be 865f 053d 4049 35bc 329e 563e
000003a0: bbe9 28be 5d9d 683e 052f 553e 8e74 20be
000003b0: 556c ed3d 48bf cbbc ac2c 353e 5652 623e
000003c0: a617 2f3e eb0c 0bbe 656b 4fbe 9cd4 5c3e
000003d0: 8e8a 713e 6d62 633e 21af 813e ae8a 84bd
000003e0: 604a 803e 22c8 17be c98f 173e 8950 793c
000003f0: 8521 51be 0bc9 013e 3b2a fa3d c07c d9bd

bias f4 [64]
-0.051389758 0.19977017 0.010801586 0.13975672 0.10049185 -0.17939715 -0.14274804 0.22114198
0.12695129 -0.0504163 0.11832276 0.08035218 0.025587147 0.078247875 -0.1772153 0.16688474
-0.014929688 0.14825784 -0.105869666 -0.2516324 -0.09262669 -0.022926137 0.19446841 -0.026131058
0.0038646387 0.016091762 0.06323317 0.16092683 0.18877926 0.24907543 0.0020786736 -0.04849937
0.12476009 0.221834 0.22802499 0.23658656 0.08184092 0.0739029 0.012445855 0.02918602
0.17358924 0.049516864 0.04162989 -0.14798579 -0.07032501 -0.18056338 0.25308472 0.025648072
0.02204925 -0.03263199 -0.14251666 0.06427701 -0.09312345 -0.17274632 -0.1469221 -0.00076154614
-0.13844034 0.21782316 0.07778454 0.12191639 0.0368181 -0.24085955 -0.05317842 0.012790719
00000000: 117e 52bd 8d90 4c3e 23f9 303c 631c 0f3e
00000010: acce cd3d e3b3 37be 8b2c 12be 0b73 623e
00000020: 85ff 013e 5281 4ebd 3453 f23d af8f a43d
00000030: 239c d13c 6c40 a03d ed77 35be d5e3 2a3e
00000040: a69b 74bc e7d0 173e 32d2 d8bd f6d5 80be
00000050: 10b3 bdbd 98cf bbbc ba22 473e cd10 d6bc
00000060: e145 7d3b dfd2 833c 6480 813d 01ca 243e
00000070: 5a4f 413e a10d 7f3e 5b3a 083b 47a7 46bd
00000080: 3882 ff3d 7428 633e 627f 693e bf43 723e
00000090: 369c a73d 675a 973d b3e9 4b3c 8517 ef3c
000000a0: 61c1 313e 32d2 4a3d 1b84 2a3d 9689 17be
000000b0: 8f06 90bd 9be5 38be 5294 813e e81b d23c
000000c0: a1a0 b43c 1fa9 05bd e3ef 11be aaa3 833d
000000d0: 82b7 bebd 69e4 30be bf72 16be 7fa2 47ba
000000e0: 4ec3 0dbe 090d 5f3e 804d 9f3d 4daf f93d
000000f0: 93ce 163d e3a3 76be 9dd1 59bd 2a90 513c

weight f4 [64, 64]
-0.0076258485 0.022765001 0.14870965 -0.019321293 0.16504891 -0.042978358 0.01584805 0.10169505
0.13544048 0.07237105 0.013817191 0.11229978 0.03507067 -0.06883234 0.085799456 0.030514723
-0.0043982207 -0.055805568 0.07817609 -0.05643599 0.087973736 0.09335365 0.13802102 0.040576726
0.013189297 -0.121104695 -0.08239055 0.035209198 0.003780752 0.13148902 0.0674617 -0.033373497
0.021538708 0.14290605 0.009914747 0.12228767 -0.07852574 -0.12218359 0.08662898 -0.13398795
0.009982643 -0.027668867 0.04127425 -0.086190306 -0.047687497 -0.015558337 0.081549644 -0.02298117
0.018018646 0.08595911 -0.08157575 -0.004172467 -0.019461017 0.008496088 -0.06094968 -0.041657496
-0.060886446 -0.10255134 -0.09307293 0.01987991 0.06274329 -0.07118965 0.040301125 -0.12753698
-0.036901042 -0.08330613 -0.093078636 0.06366721 -0.08362415 0.03456011 0.12656638 0.0825878
0.07580001 -0.037632447 0.10019035 0.05753801 -0.09015827 0.00889737 0.072254635 0.0010900008
0.06766622 -0.08567036 0.056361943 -0.09147118 0.016844938 0.05692022 0.054778542 0.004328344
0.049940027 0.12021332 -0.04411462 0.103937514 0.08667075 -0.072343916 0.13157551 0.0015162016
-0.05960409 -0.13024178 0.033441987 -0.1337388 0.009022657 0.08821214 0.0067933365 0.1284684
-0.014039707 -0.041696373 0.008010302 -0.01785802 0.06587552 -0.07130414 -0.05846296 0.02722199
-0.038289122 -0.023151113 0.025320936 0.06522704 -0.041230515 0.11717204 0.008042913 0.0032104156
-0.066582754 0.040000662 0.04147568 -0.045023482 -0.016145982 -0.04746131 -0.06993351 -0.058297243
-0.019804746 -0.079694554 -0.02189164 0.0039572027 -0.022242209 -0.048252515 -0.09594125 0.06476608
-0.09882853 0.05362613 0.08719714 -0.109163165 -0.08641525 0.0016293039 -0.08805375 -0.054982625
-0.07116571 0.031439874 0.11456643 -0.07608961 -0.08548525 0.014722299 -0.020183584 -0.010215354
-0.022619592 -0.0808818 0.14067198 -0.049126144 -0.11947023 0.041133225 0.023895197 -0.08456579
-0.061049074 -0.12042776 -0.036081623 -0.08147706 -0.0023158512 -0.070547566 0.11876587 -0.05181763
0.1138975 -0.0655723 0.01633848 0.03796163 -0.016110128 -0.019350406 0.1039753 0.08227584
0.05692468 -0.001853654 0.035831764 -0.030437011 -0.035823047 -0.046321824 -0.11703009 -0.027803762
0.021636713 0.1261169 0.08844015 -0.090319626 -0.11046322 -0.01037502 -0.049266793 0.011107794
0.044562843 0.092254125 0.09752435 0.020045623 0.0259206 0.01217886 0.093586564 0.006874642
-0.023415249 -0.0704721 0.034494497 -0.058430027 0.029411646 0.1207921 0.08367513 -0.069562495
0.10170124 -0.0024625803 -0.08077902 0.01562381 0.11834451 -0.06691537 -0.063044965 0.086849615
0.024388794 0.12426721 0.11346863 0.13071086 0.12040627 -0.113900706 0.14180036 0.038248893
-0.06752032 -0.0673785 0.00906167 -0.10312537 0.17732626 -0.039620258 -0.09267855 -0.061279982
-0.1050827 0.17083496 -0.0106686745 0.09407038 -0.030608602 0.039378017 -0.06653536 0.05014098
-0.083105035 0.12104585 -0.0032299843 0.07944928 0.07833523 -0.026285293 0.021139223 -0.010563572
0.11851746 0.09285989 -0.005958041 0.026817782 -0.13362639 0.047018167 0.049335077 0.032129094
00000000: 41e2 f9bb ab7d ba3c 5847 183e b047 9ebc
00000010: 9502 293e 130a 30bd c5d3 813c 7f45 d03d
00000020: e9b0 0a3e 4637 943d 8061 623c 6dfd e53d
00000030: 43a6 0f3d f8f7 8cbd a0b7 af3d 03fa f93c
00000040: f31e 90bb 6194 64bd c91a a03d 6d29 67bd
00000050: 932b b43d 3330 bf3d 6255 0d3e c833 263d
00000060: ec17 583c bd05 f8bd 60bc a8bd 8537 103d
00000070: 7ec6 773b 0fa5 063e 5c29 8a3d a6b2 08bd
00000080: f271 b03c f755 123e 7771 223c f571 fa3d
00000090: 1ad2 a0bd 643b fabd 896a b13d 2334 09be
000000a0: 3d8e 233c d2a9 e2bc 300f 293d 8b84 b0bd
000000b0: f753 43bd 65e8 7ebc 8003 a73d 0243 bcbc
000000c0: d79b 933c 540b b03d 3011 a7bd 31b9 88bb
000000d0: b66c 9fbc 2d33 0b3c 5fa6 79bd 0da1 2abd
000000e0: 1164 79bd 7006 d2bd 059d bebd 31db a23c
000000f0: 8e7f 803d e1cb 91bd cb12 253d 0e99 02be
00000100: 8c25 17bd 679c aabd 03a0 bebd f463 823d
00000110: 2343 abbd e78e 0d3d 9e9a 013e cb23 a93d
00000120: 093d 9b3d 7b24 1abd 9930 cd3d faac 6b3d
00000130: e6a4 b8bd 46c6 113c 3dfa 933d 5cde 8e3a
00000140: 9694 8a3d f173 afbd c8db 663d 3e55 bbbd
00000150: 65fe 893c 2d25 693d 775f 603d c8d4 8d3b
00000160: ea8d 4c3d 6732 f63d 88b1 34bd 31dd d43d
00000170: 6f80 b13d 0c29 94bd bbbb 063e 49bb c63a
00000180: 6b23 74bd 1a5e 05be 77fa 083d d3f2 08be
00000190: c4d3 133c 91a8 b43d a39a de3b 388d 033e
000001a0: cd06 66bc d1c9 2abd a43d 033c fb4a 92bc
000001b0: bfe9 863d e807 92bd db76 6fbd a700 df3c
000001c0: 0ed5 1cbd 67a7 bdbc da6d cf3c c195 853d
000001d0: 54e1 28bd e5f7 ef3d 6cc6 033c d665 523b
000001e0: 8a5c 88bd bcd7 233d 67e2 293d 8b6a 38bd
000001f0: 9444 84bc ca66 42bd 4d39 8fbd 17c9 6ebd
00000200: 903d a2bc e636 a3bd 1956 b3bc 6cab 813b
00000210: 4b35 b6bc 6ea4 45bd d97c c4bd 14a4 843d
00000220: 9d66 cabd 13a7 5b3d 6a94 b23d f090 dfbd
00000230: 7bfa b0bd 5e8e d53a 8655 b4bd 7635 61bd
00000240: 54bf 91bd 19c7 003d cea1 ea3d dfd4 9bbd
00000250: e412 afbd cc35 713c 0b58 a5bc 4d5e 27bc
00000260: b94c b9bc 5ba5 a5bd 510c 103e 7f38 49bd
00000270: cfac f4bd 507b 283d dcbf c33c d430 adbd
00000280: 980e 7abd d4a2 f6bd 53ca 13bd 72dd a6bd
00000290: 89c5 17bb 3e7b 90bd 853b f33d b93e 54bd
000002a0: 1843 e93d c54a 86bd 47d8 853c a77d 1b3d
000002b0: 63f9 83bc be84 9ebc 01f1 d43d 3c80 a83d
000002c0: da29 693d 4ff6 f2ba 54c4 123d 0a57 f9bc
000002d0: 30bb 12bd f4bb 3dbd 79ad efbd b7c4 e3bc
000002e0: 7a3f b13c ca24 013e 1c20 b53d 7ff9 b8bd
000002f0: 8a3a e2bd fdfb 29bc facb 49bd 77fd 353c
00000300: 8787 363d bbef bc3d d9ba c73d b836 a43c
00000310: 7057 d43c d789 473c 50aa bf3d ad44 e13b
00000320: 56d1 bfbc ad53 90bd 1a4a 0d3d 5354 6fbd
00000330: b1f0 f03c d961 f73d de5d ab3d c876 8ebd
00000340: bd48 d03d 3e63 21bb 796f a5bd 02fb 7f3c
00000350: 9b5e f23d ed0a 89bd b81d 81bd 36de b13d
00000360: 02cb c73c cf7f fe3d 3e62 e83d 11d9 053e
00000370: 9097 f63d c644 e9bd 1d34 113e dfaa 1c3d
00000380: 1848 8abd bdfd 89bd 6677 143c 6533 d3bd
00000390: 0495 353e da48 22bd 40ce bdbd b800 7bbd
000003a0: 9935 d7bd 5cef 2e3e aacb 2ebc f9a7 c03d
000003b0: e4be fabc d84a 213d b143 88bd a160 4d3d
000003c0: f932 aabd e3e6 f73d 25ae 53bb 4eb6 a23d
000003d0: 396e a03d 4154 d7bc 2a2c ad3c d512 2dbc
000003e0: 48b9 f23d 532d be3d ac3b c3bb f7b0 db3c
000003f0: 5bd5 08be 1f96 403d 9413 4a3d cc99 033d

bias f4 [64]
0.017034182 0.10256988 -0.040419538 -0.033728074 -0.053382967 0.015445634 -0.0022321253 0.09794739
0.014957471 0.1215288 -0.05864437 0.12938905 0.100230426 0.07877487 0.06601088 -0.08609677
-0.07631396 0.026009843 0.099096045 -0.05885916 0.08057743 0.059770472 -0.034050506 -0.03247818
-0.08404128 0.004922314 0.0076657697 -0.089064494 0.06857101 0.10974038 0.0763487 -0.052490726
0.14323251 -0.013371923 -0.037393846 -0.0949609 0.10099005 0.11328663 0.025177615 0.11452906
0.065773085 -0.06844068 -0.031860735 0.08113823 0.039864026 0.038374867 0.014386332 -0.038977504
0.010403491 0.0675526 -0.0026297334 0.01789359 0.03156242 -0.055774868 0.09223692 -0.04027722
0.101758786 -0.03692802 0.03931171 0.030488072 0.119591735 0.0849248 0.09279957 0.032121703
00000000: 458b 8b3c 2810 d23d f58e 25bd 7326 0abd
00000010: 19a8 5abd af0f 7d3c d948 12bb a498 c83d
00000020: 2e10 753c 17e4 f83d 1435 70bd 907e 043e
00000030: 9c45 cd3d b854 a13d b630 873d 8153 b0bd
00000040: 7e4a 9cbd 9812 d53c def2 ca3d 4d16 71bd
00000050: c805 a53d e2d1 743d 8b78 0bbd d707 05bd
00000060: d61d acbd 5d4b a13b 2331 fb3b 7267 b6bd
00000070: f56e 8c3d 90bf e03d b55c 9c3d 8400 57bd
00000080: 8bab 123e e915 5bbc 4a2a 19bd dc7a c2bd
00000090: dfd3 ce3d d202 e83d 4941 ce3c 368e ea3d
000000a0: 0ab4 863d a12a 8cbd 6780 02bd cd2b a63d
000000b0: 7648 233d f72e 1d3d a6b4 6b3c e0a6 1fbd
000000c0: 6773 2a3c 0459 8a3d 9b57 2cbb 9495 923c
000000d0: 9947 013d 3074 64bd b6e6 bc3d baf9 24bd
000000e0: e966 d03d d641 17bd 5105 213d 1fc2 f93c
000000f0: 83ec f43d 0eed ad3d b30d be3d 0c92 033d

weight f4 [1, 64]
0.10179076 -0.02894081 -0.12014117 -0.16590147 -0.059550248 -0.04228698 0.10546182 0.07177335
0.15587364 -0.038430244 0.04677567 -0.09109099 0.054417398 0.04766969 0.101558305 0.09143412
-0.002834381 0.13387498 0.0027093568 -0.1389072 -0.050604925 0.11069514 0.08981828 0.11291236
-0.052693333 -0.102110885 0.0062067294 0.10995364 -0.08384018 -0.16904297 0.1098588 0.099994555
-0.09279907 -0.09292629 -0.04095534 -0.068637505 0.116539836 0.031940527 0.10573905 -0.0830918
0.13583112 0.050107345 0.14841777 -0.15012208 0.11321548 0.05297141 -0.09173574 0.010926012
-0.03661179 -0.09454917 -0.13786234 0.03645147 -0.14644016 0.0683554 -0.17523047 0.066856444
-0.08372918 0.0753022 -0.11578622 0.03230517 0.09210471 0.07763893 0.12749124 0.078681424
00000000: ad77 d03d 4715 edbc 930c f6bd 13e2 29be
00000010: f6ea 73bd 1d35 2dbd 5efc d73d e8fd 923d
00000020: 579d 1f3e 0869 1dbd d897 3f3d ea8d babd
00000030: c7e4 5e3d 4b41 433d cdfd cf3d d041 bb3d
00000040: 06c1 39bb 8616 093e 778f 313b b03d 0ebe
00000050: 1c47 4fbd 22b4 e23d a5f2 b73d 983e e73d
00000060: f7d4 57bd 831f d1bd d261 cb3b 602f e13d
00000070: 66b4 abbd 9a19 2dbe a7fd e03d f2c9 cc3d
00000080: 700d bebd 2450 bebd c9c0 27bd d291 8cbd
00000090: 70ac ee3d 12d4 023d b78d d83d 092c aabd
000000a0: 5017 0b3e 5c3d 4d3d d4fa 173e 9ab9 19be
000000b0: 85dd e73d 8df8 583d f3df bbbd 0403 333c
000000c0: 3ff6 15bd ffa2 c1bd c92b 0dbe 234e 153d
000000d0: 69f4 15be eafd 8b3d 9e6f 33be 08ec 883d
000000e0: 347a abbd 0a38 9a3d 5321 edbd 6d52 043d
000000f0: 65a1 bc3d 2901 9f3d 108d 023e ba23 a13d

weight f4 [64, 17]
-0.13627312 0.20255147 -0.11145516 0.11762146 0.020985536 0.09547 0.058061313 0.12798421
-0.17261939 -0.11014675 -0.091477185 0.16981362 0.13396628 0.10735395 0.15924793 -0.1517997
0.035745166 -0.052178323 0.20388208 0.027015312 -0.030432085 0.04815882 -0.05118991 -0.034563117
-0.11029351 -0.016281012 -0.11486734 0.16887583 0.21227928 0.20693593 -0.1781969 -0.2546877
-0.072402954 0.23051904 0.2688512 0.19165839 -0.11750185 -0.0416083 -0.23603268 0.20108348
0.0029544043 -0.15300527 0.07376001 -0.24457432 -0.079981536 0.20098661 -0.06799153 -0.1461656
0.06818954 0.08208041 0.23880313 -0.16103175 -0.12099242 -0.09915928 -0.10672385 0.20070682
0.12207525 0.14388463 -0.11611288 0.022381442 0.033354662 0.23236375 -0.017835459 0.15675278
0.10891687 -0.024004603 0.034697376 -0.1711674 0.26267412 0.06251852 -0.093313314 -0.074589066
0.103967436 0.15034895 -0.09609142 -0.10975927 0.02175972 0.045574464 -0.05479353 -0.07412156
0.0017932728 0.0835489 -0.14297366 0.22561595 0.08358761 0.30640873 0.0025497798 0.24881531
-0.15913582 0.17970057 -0.17728564 0.21064442 0.20492464 -0.020386245 -0.11753657 -0.10102806
-0.08928344 0.090602055 0.19703542 -0.30670953 0.0908592 -0.05346743 -0.26775965 0.09029441
-0.004894785 -0.051985826 0.07416952 0.17534544 0.15115716 0.23643045 0.24286239 -0.23983699
0.11447467 -0.21068093 -0.16340753 0.040175132 0.1993032 0.2519659 -0.0023220317 0.10290796
0.031377878 0.07001039 -0.17165382 -0.04062222 -0.25325105 0.013204147 -0.225485 -0.21275227
-0.04901081 0.002414764 -0.07207261 -0.04250937 0.056230612 0.13638376 -0.19618909 -0.2253483
-0.047811154 0.04325884 0.02997794 -0.17228766 0.08694804 0.13141128 0.20608461 0.21775639
0.21934716 0.15967509 0.1302763 -0.049979918 0.18757099 -0.16285312 0.14474879 -0.24290131
-0.10709866 0.31762084 0.13528138 0.033915125 -0.20770471 0.01108166 -0.15711549 0.026115464
0.20200522 0.23198333 0.14587253 0.12299043 -0.15988398 -0.07187492 0.18754606 -0.3140078
-0.04494917 -0.107671574 -0.042022143 0.079417124 0.15644996 -0.19237718 0.15322162 -0.23884764
-0.21233414 0.1880056 0.039893042 -0.09807929 -0.18705164 -0.12655833 -0.2547021 0.13764977
-0.037757576 -0.17267731 0.16942503 -0.16504386 0.019197635 -0.006575794 -0.05311979 0.17682785
-0.18490933 -0.08131772 -0.08663392 0.22774732 0.122971445 -0.2509417 0.22246999 0.21311718
0.20102668 0.0053611584 -0.10745128 -0.010703695 -0.18339044 -0.246605 0.02866775 -0.037053756
-0.0024612923 0.1612382 -0.062852256 0.03788296 0.28325212 0.22013418 0.18392397 0.15019184
-0.09398249 -0.10760277 -0.17468946 -0.119744495 0.00995952 0.16505402 0.06934571 0.041121293
0.12775952 -0.12098041 0.23832697 -0.08503779 0.12849243 0.14823262 0.1464502 -0.21246342
0.053883053 0.24651395 -0.036331274 0.19034368 -0.09091994 0.240884 0.10395409 -0.23302007
0.01802053 -0.09441766 0.09315677 0.10143563 -0.11652333 -0.18150866 0.04543294 -0.0128878
0.20751184 0.19553949 0.20686796 -0.15785293 0.21624915 -0.16558355 0.21031946 -0.08214125
00000000: 2e8b 0bbe a769 4f3e 9a42 e4bd 85e3 f03d
00000010: dce9 ab3c c685 c33d b3d1 6d3d 4b0e 033e
00000020: 23c3 30be 9f94 e1bd 6458 bbbd 9fe3 2d3e
00000030: 752e 093e 63dc db3d e411 233e 6171 1bbe
00000040: 8669 123d f0b8 55bd 77c6 503e 374f dd3c
00000050: b54c f9bc 2f42 453d 83ac 51bd 0e92 0dbd
00000060: 90e1 e1bd c25f 85bc 913f ebbd c9ed 2c3e
00000070: bd5f 593e 03e7 533e 4079 36be 6d66 82be
00000080: 0048 94bd 2f0d 6c3e dda6 893e 1942 443e
00000090: cfa4 f0bd 776d 2abd 8db2 71be d4e8 4d3e
000000a0: ae9e 413b 6aad 1cbe 7d0f 973d b171 7abe
000000b0: 5ccd a3bd 6fcf 4d3e 253f 8bbd 6fac 15be
000000c0: f5a6 8b3d c619 a83d cf88 743e 82e5 24be
000000d0: e0ca f7bd 0514 cbbd 0992 dabd 1786 4d3e
000000e0: 9702 fa3d 7e56 133e 97cc edbd 4959 b73c
000000f0: e69e 083d c3f0 6d3e ab1b 92bc cd83 203e
00000100: cf0f df3d 4da5 c4bc d61e 0e3d 8246 2fbe
00000110: 397d 863e b609 803d 0d1b bfbd 27c2 98bd
00000120: e1ec d43d 13f5 193e 94cb c4bd 78c9 e0bd
00000130: 7141 b23c 4aac 3a3d 2e6f 60bd 0bcd 97bd
00000140: 400c eb3a b01b ab3d b067 12be de07 673e
00000150: fb2f ab3d 9be1 9c3e 351a 273b 71c9 7e3e
00000160: 80f4 22be 6d03 383e 5e8a 35be 2cb3 573e
00000170: c4d7 513e 0e01 a7bc 03b7 f0bd cde7 cebd
00000180: 3cda b6bd 928d b93d a7c3 493e 0809 9dbe
00000190: 6314 ba3d aa00 5bbd cb17 89be 47ec b83d
000001a0: 6f64 a0bb 17ef 54bd 30e6 973d c18d 333e
000001b0: f1c8 1a3e d31a 723e ebb0 783e d497 75be
000001c0: b271 ea3d bebc 57be 4e54 27be ae8e 243d
000001d0: 2316 4c3e ad01 813e 3a2d 18bb 69c1 d23d
000001e0: 1786 003d 9b61 8f3d 05c6 2fbe 7c63 26bd
000001f0: 1faa 81be 3556 583c 8ae5 66be bbdb 59be
00000200: 8fbf 48bd 0441 1e3b ce9a 93bd 4e1e 2ebd
00000210: 1252 663d 2fa8 0b3e cbe5 48be b4c1 66be
00000220: a1d5 43bd 2e30 313d 4c94 f53c 2d6c 30be
00000230: d011 b23d ae90 063e d807 533e 88fb 5e3e
00000240: 8b9c 603e de81 233e 2667 053e beb7 4cbd
00000250: 9c12 403e f8c2 26be 0739 143e 1fbb 78be
00000260: 8b56 dbbd 339f a23e 3487 0a3e 96ea 0a3d
00000270: 8bb0 54be da8f 353c e2e2 20be 19f0 d53c
00000280: 75da 4e3e 0a8d 6d3e 9c5f 153e 68e2 fb3d
00000290: a0b8 23be 2833 93bd 130c 403e a1c5 a0be
000002a0: 9f1c 38bd ea82 dcbd 691f 2cbd 72a5 a23d
000002b0: 6b34 203e 86fe 44be 21e6 1c3e 7a94 74be
000002c0: 1f6e 59be 8a84 403e e366 233d cbdd c8bd
000002d0: 778a 3fbe 8298 01be 5068 82be 10f4 0c3e
000002e0: b0a7 1abd 52d2 30be c17d 2d3e 4201 29be
000002f0: 5c44 9d3c c279 d7bb 2394 59bd 5c12 353e
00000300: df58 3dbe e889 a6bd 206d b1bd 9836 693e
00000310: 74d8 fb3d 6e7b 80be 2ccf 633e 643b 5a3e
00000320: f0d9 4d3e a8ac af3b 6b0f dcbd 8d5e 2fbc
00000330: b4ca 3bbe 0586 7cbe a1d8 ea3c aec5 17bd
00000340: a24d 21bb a01b 253e afb8 80bd 2a2b 1b3d
00000350: 6c06 913e db6a 613e 9156 3c3e e4cb 193e
00000360: e479 c0bd d75e dcbd cbe1 32be 9a3c f5bd
00000370: 412d 233c ec03 293e 2005 8e3d cd6e 283d
00000380: 64d3 023e 94c4 f7bd fc0b 743e 4b28 aebd
00000390: 8593 033e 4bca 173e 0bf7 153e 0390 59be
000003a0: 7ab4 5c3d 276e 7c3e 1ad0 14bd 74e9 423e
000003b0: 3c34 babd 4caa 763e e2e5 d43d d09c 6ebe
000003c0: ca9f 933c 0c5e c1bd fac8 be3d 7cbd cf3d
000003d0: c9a3 eebd 68dd 39be e417 3a3d 5a27 53bc
000003e0: fc7d 543e 813b 483e 32d5 533e 33a4 21be
000003f0: 6b70 5d3e bc8e 29be fc5d 573e ac39 a8bd

bias f4 [64]
0.08549311 0.19455135 0.18160462 -0.15286294 -0.087051965 -0.18078598 -0.012020732 0.13430555
0.08195351 -0.10742002 -0.04721372 0.11437203 -0.18592112 0.17514184 0.12975763 0.0914956
0.14986388 0.20882413 -0.16033374 -0.1943875 -0.18586415 -0.14828394 0.088831484 -0.19854291
-0.041099206 -0.106911495 0.08417643 -0.07189243 0.26352838 0.07487708 0.05052387 0.075856246
-0.055229902 0.021653894 -0.10785098 0.078716725 -0.19625661 -0.06277207 0.028098768 -0.023591787
0.016704539 0.24033825 0.16121587 -0.15234055 0.23170115 0.01573624 -0.00029743998 0.26279557
-0.0988028 0.040497944 -0.16171251 0.06168171 0.18947242 -0.02295285 -0.16091007 -0.07762475
0.056335177 0.089805156 0.15569355 -0.064024396 0.13850635 0.2180169 0.179189 0.2125605
00000000: 0317 af3d 7838 473e 90f6 393e 1a88 1cbe
00000010: 4d48 b2bd f61f 39be 9bf2 44bc 6587 093e
00000020: 3ed7 a73d 07ff dbbd 2c63 41bd e23b ea3d
00000030: 1b62 3ebe 6258 333e 2fdf 043e 0c62 bb3d
00000040: eb75 193e fed5 553e 872e 24be 840d 47be
00000050: 2c53 3ebe bfd7 17be 48ed b53d d54e 4bbe
00000060: a457 28bd 6af4 dabd b164 ac3d 573c 93bd
00000070: 31ed 863e 2859 993d 1ef2 4e3d 855a 9b3d
00000080: c038 62bd 8263 b13c f9e0 dcbd 3c36 a13d
00000090: 7ef7 48be a58e 80bd 632f e63c 9043 c1bc
000000a0: f5d7 883c 3b1b 763e c615 253e 29ff 1bbe
000000b0: 1143 6d3e 4ae9 803c b8f1 9bb9 248d 863e
000000c0: 1f59 cabd 2ce1 253d f797 25be f6a5 7c3d
000000d0: 0f05 423e 9e07 bcbc 9cc5 24be baf9 9ebd
000000e0: b7bf 663d c4eb b73d 216e 1f3e 391f 83bd
000000f0: 9cd4 0d3e d23f 5f3e 527d 373e 76a9 593e

weight f4 [64, 64]
0.060721595 -0.071358636 0.0033610486 -0.069348164 0.027555807 -0.13318029 0.066512555 0.09580757
-0.06507845 -0.042355593 0.11295076 0.11730017 0.10885393 0.071701095 -0.08293422 0.092257455
-0.019222656 0.12318753 0.11537131 0.0748698 0.0014413052 -0.10891929 0.11081718 0.069145806
-0.052362997 0.029289465 -0.014659911 0.1278715 -0.0042308015 0.15184657 0.005670403 0.09351386
0.013734275 0.04625773 0.062144984 0.055375136 0.0825308 0.09453321 0.07490243 0.020704364
-0.10112509 -0.03221013 0.112636976 -0.06701975 -0.044473555 0.06795977 0.007885597 0.028786607
-0.1383392 0.11560698 0.008250782 -0.0048283627 -0.10638254 0.09603292 0.03343062 -0.049004987
-0.11512721 -0.012803924 0.059413802 -0.018409612 0.0328646 -0.009053014 -0.065102175 0.020789433
0.077696875 0.035904165 0.042744327 0.10331243 0.09837709 0.04059852 0.033276092 -0.05575033
-0.01935434 -0.003013629 0.12664203 0.019687556 -0.059426278 0.1150262 0.057954334 -0.059265103
0.06316138 -0.1213737 -0.0048256847 0.15990888 0.10489636 -0.05923211 -0.012988679 -0.03877759
-0.07870337 0.1640803 0.0514473 0.114257224 -0.03378192 0.003373753 -0.01170926 0.11066292
-0.09017768 -0.00556966 0.081288844 0.07784671 0.026090378 0.11612313 -0.053013213 -0.03603385
-0.0457078 0.105281346 -0.05416439 0.11071682 -0.06685474 0.1601343 -0.14131537 -0.03340127
0.09821549 0.07504377 -0.13555235 0.08763576 -0.056164525 -0.048080646 -0.018882256 -0.02911707
0.06576581 0.06161976 -0.09975669 0.06441171 0.03950604 0.022744013 -0.02556275 -0.009433273
0.08299475 0.059145175 -0.048650134 0.025781114 -0.08644066 -0.111358926 0.10115727 -0.019457933
0.091007635 -0.13455299 0.14288048 0.00935851 0.12720835 0.028581902 -0.083755426 -0.07446648
0.10737187 -0.006124113 0.12235137 -0.06245156 -0.06758787 -0.021113869 0.020053988 -0.08098267
-0.07123539 -0.020921584 0.09089027 0.13162996 -0.1374113 0.13646095 0.044828635 -0.02786511
-0.11921978 -0.01297064 0.07792316 -0.08273726 0.018259719 0.12288312 0.016933361 -0.09388283
-0.053920988 0.07366523 0.10668503 -0.090954736 0.082181506 -0.11518591 -0.0115407035 0.13025422
0.05861425 0.15328546 0.0892274 0.041054472 -0.08673409 -0.058945097 -0.07005021 0.004543923
0.04224475 -0.014188481 0.057645302 -0.042958155 0.03820594 -0.06564508 0.061413374 0.06334979
0.12269036 -0.03670771 0.06359063 -0.07850955 0.07618196 0.032421965 0.05174741 -0.022704639
0.10932238 -0.0065244385 0.057175685 -0.067474104 0.06028884 -0.023727793 0.08381311 -0.09437744
-0.070131086 -0.03099764 -0.10773685 -0.12094636 -0.09689107 -0.015532341 0.08887838 0.008572403
0.023701854 -0.07023532 0.09007705 -0.05691473 -0.04428727 -0.09359188 -0.027622037 0.013004401
0.10249517 -0.13326332 -0.0837493 -0.11096228 0.01182136 -0.0068899426 0.03154625 0.031250075
-0.03929518 0.09445031 -0.09355477 0.08630053 -0.11817012 0.01390957 -0.06725964 -0.06840035
-0.0002595612 -0.026254829 0.021355353 -0.005708638 -0.045272492 0.04206401 0.09867427 0.0947112
-0.036903184 -0.10069166 -0.071971916 -0.12085822 0.0009123445 -0.085288405 0.048734933 0.09068461
00000000: 35b7 783d 7a24 92bd 0a45 5c3b 6906 8ebd
00000010: b7bc e13c 6a60 08be bc37 883d c236 c43d
00000020: da47 85bd 0f7d 2dbd ba52 e73d 123b f03d
00000030: cfee de3d 06d8 923d 6bd9 a9bd 7af1 bc3d
00000040: d578 9dbc be49 fc3d cb47 ec3d 5655 993d
00000050: 2dea bc3a 1411 dfbd 1ef4 e23d 519c 8d3d
00000060: 957a 56bd 76f0 ef3c 2030 70bc bff0 023e
00000070: 89a2 8abb ab7d 1b3e cace b93b 3284 bf3d
00000080: b905 613c bf78 3d3d bd8b 7e3d 0ad1 623d
00000090: e805 a93d a19a c13d 7266 993d 339c a93c
000000a0: ac1a cfbd c5ee 03bd 37ae e63d a741 89bd
000000b0: e729 36bd 7e2e 8b3d 9732 013c e4d1 eb3c
000000c0: cba8 0dbe 5ac3 ec3d 4a2e 073c 3e37 9ebb
000000d0: 17df d9bd e8ac c43d 8cee 083d 74b9 48bd
000000e0: d1c7 ebbd 8dc7 51bc e35b 733d c1cf 96bc
000000f0: 089d 063d 1853 14bc 4a54 85bd 9a4e aa3c
00000100: 8a1f 9f3d 3f10 133d ad14 2f3d 7895 d33d
00000110: ee79 c93d a24a 263d 834c 083d 755a 64bd
00000120: fe8c 9ebc 4e80 45bb 73ae 013e cc47 a13c
00000130: f868 73bd db92 eb3d 8661 6d3d f7bf 72bd
00000140: c15a 813d c692 f8bd c720 9ebb 27bf 233e
00000150: e7d3 d63d 5e9d 72bd 78ce 54bc 40d5 1ebd
00000160: 3c2f a1bd ab04 283e 67ba 523d b1ff e93d
00000170: e95e 0abd 2f1a 5d3b 32d8 3fbc 3ea3 e23d
00000180: 13af b8bd b281 b6bb c47a a63d 196e 9f3d
00000190: 7dbb d53c f7d1 ed3d 6224 59bd 3b98 13bd
000001a0: 1a38 3bbd bf9d d73d 7bdb 5dbd 80bf e23d
000001b0: 23eb 88bd 3ffa 233e fab4 10be c5cf 08bd
000001c0: 3425 c93d 8cb0 993d 3cce 0abe 617a b33d
000001d0: c60c 66bd 36f0 44bd f6ae 9abc ec86 eebc
000001e0: 3ab0 863d 0065 7c3d 3c4d ccbd 49ea 833d
000001f0: 16d1 213d a751 ba3c f968 d1bc 048e 1abc
00000200: 27f9 a93d 3642 723d 5d45 47bd ea32 d33c
00000210: cd07 b1bd 2610 e4bd 8b2b cf3d 3e66 9fbc
00000220: 3662 ba3d 42c8 09be 434f 123e 7054 193c
00000230: e842 023e 9824 ea3c f787 abbd e281 98bd
00000240: c8e5 db3d c9ac c8bb 5b93 fa3d 35cd 7fbd
00000250: 826b 8abd fef6 acbc 4348 a43c 3eda a5bd
00000260: dce3 91bd be63 abbc ae24 ba3d 01ca 063e
00000270: 8cb5 0cbe 6bbc 0b3e 3b9e 373d 5f45 e4bc
00000280: 8029 f4bd cf82 54bc 2d96 9f3d 2772 a9bd
00000290: 6895 953c 25aa fb3d d5b7 8a3c a445 c0bd
000002a0: 41dc 5cbd ccdd 963d ae7d da3d 7a46 babd
000002b0: c74e a83d 97e6 ebbd 3815 3dbc 5d61 053e
000002c0: 7f15 703d ddf6 1c3e dbbc b63d bc28 283d
000002d0: a4a1 b1bd 6a70 71bd 7c76 8fbd 30e5 943b
000002e0: d508 2d3d cd76 68bc 7b1d 6c3d e4f4 2fbd
000002f0: d57d 1c3d ed70 86bd 978c 7b3d 89bd 813d
00000300: 1545 fb3d d35a 16bd ce3b 823d 9dc9 a0bd
00000310: 4a05 9c3d e5cc 043d 18f5 533d 14ff b9bc
00000320: 69e4 df3d f5ca d5bb 0d31 6a3d dd2f 8abd
00000330: 6ef1 763d ca60 c2bc 35a6 ab3d f648 c1bd
00000340: e3a0 8fbd c3ee fdbc 23a5 dcbd bab2 f7bd
00000350: d36e c6bd 5c7b 7ebc de05 b63d 4473 0c3c
00000360: 642a c23c 89d7 8fbd 517a b83d 6c1f 69bd
00000370: 9266 35bd 19ad bfbd 9c47 e2bc 6910 553c
00000380: fde8 d13d 2e76 08be c184 abbd 3140 e3bd
00000390: 61ae 413c 07c5 e1bb a436 013d 1400 003d
000003a0: fcf3 20bd 2a6f c13d a599 bfbd 55be b03d
000003b0: 2d03 f2bd f7e4 633c 6cbf 89bd 7c15 8cbd
000003c0: b715 88b9 5e14 d7bc 6cf1 ae3c 870f bbbb
000003d0: a66f 39bd 504b 2c3d bc15 ca3d f2f7 c13d
000003e0: cb27 17bd 6e37 cebd 0366 93bd 8484 f7bd
000003f0: 672a 6f3a b0ab aebd 489e 473d dab8 b93d

bias f4 [64]
-0.0931701 0.09644564 -0.04804593 -0.094256386 -0.026722716 -0.08046958 0.014815035 -0.026178718
-0.123651646 0.09142797 -0.01949068 0.107982814 -0.053072818 -0.05989413 -0.046322443 0.034800656
0.057865556 -0.019804064 -0.069255166 -0.061073095 -0.004989803 0.13749528 0.09069101 -0.11838869
-0.09119162 0.043707564 -0.03664433 0.11703163 0.093933985 -0.07061523 -0.104236595 -0.056658782
0.08204384 -0.049943667 -0.052818257 0.022995172 0.02814022 -0.051422782 -0.063193366 -0.032873046
0.0031177022 -0.09899641 -0.074811965 -0.060012642 -0.052972425 0.07586275 -0.0518829 -0.06864996
0.13298535 -0.061914746 0.042740524 0.10992352 0.049389474 0.030415224 0.1021536 0.12460908
-0.007828226 -0.07180091 0.080732554 -0.10303006 -0.022119606 -0.06510795 -0.12339719 0.08854578
00000000: f7cf bebd 4b85 c53d cfcb 44bd 7e09 c1bd
00000010: 99e9 dabc 3ccd a4bd c3ba 723c c074 d6bc
00000020: 133d fdbd 963e bb3d ebaa 9fbc 1826 dd3d
00000030: e262 59bd 8c53 75bd 9abc 3dbd 228b 0e3d
00000040: 6f04 6d3d 223c a2bc a7d5 8dbd c827 7abd
00000050: 8081 a3bb 90cb 0c3e 35bc b93d c575 f2bd
00000060: acc2 babd b406 333d 5d18 16bd 47ae ef3d
00000070: 7660 c03d b89e 90bd ff79 d5bd 0a13 68bd
00000080: 9a06 a83d bb91 4cbd f557 58bd 5f60 bc3c
00000090: 5286 e63c b2a0 52bd 866b 81bd e3a5 06bd
000000a0: 5d52 4c3b a1be cabd 0437 99bd d1cf 75bd
000000b0: 9df9 58bd ee5d 9b3d 2a83 54bd 5a98 8cbd
000000c0: 502d 083e 519a 7dbd b010 2f3d 951f e13d
000000d0: 9e4c 4a3d 5929 f93c e835 d13d 0c33 ff3d
000000e0: f641 00bc 5b0c 93bd 1c57 a53d 6d01 d3bd
000000f0: 2d34 b5bc 5157 85bd aab7 fcbd 7d57 b53d
