master_research/two-dim-data/two-dim-gauss/scaled/model_1.pth (torch, 24264 bytes, 6 tensors)

fc1.weight f4 [64, 18]
00000000: cdf6 55be 3af7 3b3e 66f1 ea3d 459d b2bd
00000010: 7761 313e 21af debd 8693 de3d 6004 133d
00000020: 72b4 22be 4a56 3a3e f920 4b3e 7081 f43c
00000030: d53e 0d3d 018c 5cbd 6725 963c d43e 463e
00000040: f39c d23d f822 6a3e 9c89 953e ab22 81bd
00000050: 23fa 0f3e d66f 16be 8bce 94bd 7656 e73c
00000060: 6075 11be be9f ebbd 5990 923e 08d3 6cbd
00000070: b5cc 973d 1f9d 08bd 9c97 27be 4b43 2e3e
00000080: eae9 523d e56d 8bbe f40d f5bd 6bc4 2d3e
00000090: 4460 1c3d 0155 9d3e 81ce 663c 03a8 563d
000000a0: 88fd 12be 9b0d 12bd 260c 5dbe 5f9f 533e
000000b0: 2492 63bd 0178 eebc 3a69 9b3d 8009 db3d
000000c0: 5d68 e63d 3813 cb3d 2218 51bd f3f8 00be
000000d0: 850a ae3d c357 433e 130e 60be 2c73 01bd
000000e0: b925 01be a146 60be 5f1c 113e 6d72 04be
000000f0: d27f 753e 276d 5bbd f4e1 e33c 7b23 2f3e
00000100: 2fd1 853d 2c27 17be cb65 cebd 3ef1 59be
00000110: 625d 873d c305 313e 5383 5fbe 9dea abbd
00000120: 8691 f5bb d1f2 5d3a d418 b6bb 9c52 2c3d
00000130: 9205 f3bd 3083 ccbb 1fe1 183c 7354 debd
00000140: ca31 88bd 2c29 3c3e 0979 613d faa0 d8bd
00000150: b399 86bd 0514 173e 1202 a93e f6b6 8a3e
00000160: 568f 3cbd bd4e 173e de9e d9bc f90d 33be
00000170: 1f01 5fbd 731a 253d 69d1 563d f7de 47be
00000180: 58da 05be bf66 6bbe ca2f 1abe 3465 f9bd
00000190: dde9 1fbe d667 233e fe00 1cbe 1806 543e
000001a0: 654d 9a3d 73cc 143e 5c97 d93d 356b e53d
000001b0: c285 293d 8f6d 553e a609 b5bc c97e dfbd
000001c0: 7903 6abe 6c73 f83c 933d c53d 5e17 59be
000001d0: 1773 9b3d f7ac 093e 57f1 35be 04c0 b63d
000001e0: 4bde b8bd cb33 60be 6ee9 87bd 4197 d2bd
000001f0: c8da cfbd a2a5 5ebe ab53 733d 8b81 f7bd
00000200: 4980 833c f615 6cbe 49eb 2b3e 2110 c4bd
00000210: 6d71 5ebe 1a17 12be 4687 863b b982 243d
00000220: 0238 3abe c6ed 4b3e 95d3 243d 5912 683e
00000230: 483a 6bbd d3cd 8a3d 4a3d 6cbb 4ce1 07be
00000240: 9196 79be 1d22 293d 770c 6b3e cc45 363e
00000250: 6135 57be 10c6 0bbc ec22 60be b9b8 4dbd
00000260: 3256 af3d 0a66 9f3d c207 3cbe 4152 113e
00000270: 619f 34bd 68cb 28be 9a8e 123e 8b95 efbd
00000280: 42e2 023e 797d 82bd 904c 34bd 18a6 99be
00000290: 4155 e8bd 0d5a 4cbe e734 42be ed72 e73d
000002a0: aa08 a43b 7565 753e fbb8 8f3e ca60 993c
000002b0: 88a4 ce3d e2fc d8bb 6088 343e 54f0 253e
000002c0: 626e 28be 5835 09be 6cf6 283e a214 5c3e
000002d0: ac1f 89bd c254 a43e 0321 783d 23b7 273e
000002e0: 9c2b c13c fb6e 33be ab91 e3bc 3c5a 273e
000002f0: de96 663e a22d 1a3e 08ab c4bd 93fd c4bd
00000300: c409 34bc b0dd 14bd d75e 47be d0b1 173e
00000310: 6ee1 643d beac 843d 16ec 1b3e 920b b83c
00000320: 9df1 dc3c 23d1 2fbe afd3 1bbe affd 903d
00000330: 4e8e 98be b1fa b73d eea4 cc3d b76a 8fbd
00000340: 80f1 e5bd 16ad 033e 287b b7bd 70f6 ee3b
00000350: 6cf5 143e 9435 8abe c0bf 4dbe 1677 20be
00000360: 13b9 a1be 9366 483d d990 00be a96e a73d
00000370: 5bfb 5e3d 228f cbbd 47b1 5ebc 25b9 c53c
00000380: cf5e a9bb d1f6 4a3d ddd5 9a3c 39e8 003e
00000390: 8962 8f3c 4351 61bd e873 49be 497a 66be
000003a0: 402e c4bd 3fd1 da3c 63df 0e3e c3ae 91be
000003b0: 7e50 f73d b739 313e d023 4dbe 095e 6cbd
000003c0: b1df e43d ae50 963e 857b 0b3d 0888 aa3d
000003d0: f27f e23c f0a3 2b3d bf26 103e dfde 663e
000003e0: 4fbe 7fbd c499 13be 523b 36bd a5f1 fe3d
000003f0: eb34 803e 29f2 a93c 06b2 1abe 1696 093e
-0.20894928 0.18356028 0.11471824 -0.08721403 0.17322336 -0.10873247 0.108679816 0.035892844
-0.15889147 0.18196979 0.19836797 0.029846877 0.03448375 -0.053844456 0.018328382 0.19359905
0.10283842 0.22864902 0.2920655 -0.063054405 0.14060263 -0.146911 -0.072659574 0.02823947
-0.14204931 -0.11505078 0.28625754 -0.057818443 0.07412092 -0.033352967 -0.16366428 0.17017858
0.05149261 -0.2723228 -0.11965552 0.16969459 0.038177744 0.30728915 0.01408732 0.052406322
-0.14354527 -0.035657506 -0.21586666 0.20666264 -0.055559292 -0.029109957 0.0758843 0.10695171
0.112503745 0.09915775 -0.051048405 -0.12594967 0.084981 0.19076447 -0.21880369 -0.031603977
-0.12612046 -0.21901943 0.14170979 -0.12934275 0.23974541 -0.053570893 0.027817704 0.17103378
0.06534039 -0.14761037 -0.10078009 -0.21283433 0.06609608 0.17287354 -0.2182744 -0.08394358
-0.0074941544 0.00084666634 -0.005557159 0.04207097 -0.11866297 -0.0062412247 0.009331017 -0.10855951
-0.066501215 0.18375081 0.05504707 -0.10577579 -0.065722845 0.1475373 0.33009392 0.27092713
-0.046035133 0.1477613 -0.026565012 -0.17485799 -0.05444443 0.040308427 0.052445803 -0.19518648
-0.13071573 -0.22988413 -0.15057293 -0.12177506 -0.15616556 0.15957579 -0.15234753 0.2070545
0.07534293 0.14531116 0.10624573 0.11202089 0.041387327 0.20842575 -0.022099327 -0.10912854
-0.22852887 0.030328475 0.09630885 -0.2120032 0.07590311 0.13444887 -0.17767845 0.08923343
-0.09026774 -0.21894757 -0.0663632 -0.10282756 -0.10149151 -0.21742871 0.059405964 -0.12085255
0.016052382 -0.23055252 0.16788973 -0.09573389 -0.21722956 -0.14266625 0.0041054813 0.04016373
-0.18185428 0.19914922 0.040240843 0.22663249 -0.05742863 0.06777539 -0.0036047273 -0.13269538
-0.24373843 0.0412923 0.22953974 0.17800063 -0.21016456 -0.0085311085 -0.21888322 -0.050224993
0.08561362 0.07783134 -0.18362334 0.14191534 -0.044097308 -0.16483843 0.1431221 -0.11698445
0.12781623 -0.06371588 -0.04401833 -0.30009532 -0.11344386 -0.19956227 -0.18965493 0.11301217
0.0050059156 0.23964484 0.28070816 0.01872291 0.100899756 -0.006621943 0.17630148 0.16204959
-0.16448358 -0.13399255 0.16500252 0.21492246 -0.06695494 0.32095915 0.060578357 0.16378455
0.023580365 -0.17522804 -0.02777942 0.16343015 0.22518489 0.1505647 -0.09602934 -0.09618678
-0.010988656 -0.03634423 -0.19469772 0.14813924 0.05587905 0.064782605 0.15226778 0.022466455
0.026970679 -0.17169623 -0.1521747 0.07079636 -0.2979607 0.089833625 0.09992395 -0.07002776
-0.11227703 0.12858996 -0.08959037 0.0072925612 0.14546746 -0.26994002 -0.20092678 -0.15670428
-0.31586513 0.048925947 -0.12555255 0.081754036 0.05443893 -0.0993941 -0.013592071 0.024136135
-0.005168773 0.04955179 0.018900806 0.12588586 0.01750304 -0.055009138 -0.19673121 -0.22507586
-0.09579134 0.026711104 0.13952403 -0.28453645 0.120758995 0.17307173 -0.20033193 -0.057706866
0.11175478 0.2935843 0.034053344 0.08326727 0.0276489 0.04190439 0.1407728 0.22545956
-0.06243735 -0.14414126 -0.044490166 0.12448434 0.25040373 0.020745354 -0.15106973 0.1343616

fc1.bias f4 [64]
00000000: 8716 283e cc84 f6bd 77a4 9d3d cce8 4abe
00000010: 5c03 a43d 44be 23be 86f2 6ebe 2da7 a23d
00000020: 8d0f 273e b6f4 f5bd 470d 09bd 163f 8ebd
00000030: 9a3d 673e 46a5 81bd dcc4 7a3e 0ea3 b8bd
00000040: edd5 123d bed3 23be a300 aabd e604 593e
00000050: d2cf d3bd 3c22 d7bd c5ca 7fbc e63b 7cbe
00000060: b53e 4a3c 2ba2 b1bd b24c 2abe a38c de3d
00000070: 2587 12be 79f3 71bd dc89 1e3e a423 29be
00000080: a13f 883e ef3d 04bd b825 06be dbda 9e3b
00000090: 0611 a5bc 8106 783d f4b0 4d3e c4c3 97bc
000000a0: fbac 2e3e ef29 3e3e 51f0 2a3e 7a50 36be
000000b0: 2cd8 6a3e c709 67be cc5e 353e 4a20 283e
000000c0: 8cab 27be 9b59 d13d 953c fdbd e209 853e
000000d0: 3ac1 cc3c a736 073e e3dc 2b3e 96f1 223e
000000e0: 54d6 113e 27b3 22be 3669 523c c7ec 653b
000000f0: f7c1 123e bf56 893d 6a0e 1abe cd3a 10be
0.16414843 -0.12037048 0.07697385 -0.19815367 0.08008453 -0.1599055 -0.23334703 0.079420425
0.16314526 -0.120095655 -0.033459928 -0.069456264 0.22582093 -0.063303515 0.24489158 -0.09015475
0.035848547 -0.15998742 -0.08300903 0.21193275 -0.10342373 -0.105045766 -0.015612309 -0.24632224
0.012344052 -0.08673509 -0.1663082 0.10866668 -0.14309366 -0.059070084 0.15482277 -0.16517502
0.26611045 -0.032285627 -0.13100326 0.004847867 -0.020149719 0.060553078 0.20087034 -0.018525966
0.17058174 0.18570684 0.16693236 -0.17804137 0.22934026 -0.22562324 0.17711943 0.16418567
-0.16374034 0.10222169 -0.12365071 0.25984102 0.024994481 0.13204442 0.1678348 0.1591247
0.14241916 -0.15888654 0.012842467 0.0035083757 0.14331804 0.06705999 -0.15044561 -0.1408493

fc2.weight f4 [64, 64]
00000000: 3475 273c b9ad b9bd a76f 13be 9956 16be
00000010: 6d86 21be f42c 7dbd 91e2 58bd 5dc1 bb3c
00000020: cf19 0e3d 257a 263e e36e 90bd 1d35 0d3c
00000030: cca2 f03b 6d09 c13d 6f55 e9bd 3dc9 063e
00000040: 29e6 013d 8c1f bc3c 807e 70ba 5ceb 1cbd
00000050: 0f6b 5a3d 688a 9dbd d981 1b3e d5d4 8b3d
00000060: 6bf8 05bd 2d75 cf3c 386c 533d abc6 0d3e
00000070: 7278 dabc 9823 153e 1f3a 9c3d 1260 d8bd
00000080: f129 9cbc b4d6 dfbd b83c bd3d 7a7e 2abc
00000090: 8ead 1e3e fe6d 9f3c ef79 0f3e d4d8 13bd
000000a0: 05e9 3f3d 34c1 8cbd 51c5 663c 4d4c 583d
000000b0: 0936 1e3d 383f 2ebd 1194 c23d be7c 4abd
000000c0: e317 1a3d 357a 02bd 3867 f1bc ab91 033e
000000d0: ea35 fa3d 5f3d 3dbd 4a63 8a3b 5786 8cbc
000000e0: f932 30bd 0e71 2bbb 91cd 45bd d7b2 cd3d
000000f0: 057c bc3d b3f6 89bd 7df8 6a3d e06b c03d
00000100: bf9d 15bd c4cd 023e befb 1f3d dada bf3d
00000110: ec33 21bc 63d7 7bbc da72 903d 7fb9 463d
00000120: 74f8 9cbd d79d ce3d 26db e3bd f191 c23d
00000130: 14f6 093d f66c 2e3e 72dd f33c 1b1f 15bd
00000140: 8d83 dbbc 06ee 433d c8ca 93bd 7b0d 07bc
00000150: c67c ac3c cc56 1c3e 96f2 1c3e 983a 4d3d
00000160: 8d8d d33d 8b48 a23d 5e9e 52bd 3f4b 193d
00000170: be60 183c f059 163e 7f20 fc3c 61a0 95bd
00000180: 8b62 db3d ea08 933d 98c1 d5bb 864a ee3c
00000190: c8d6 a4bc 542b ef3c a4a7 66bd dfb2 cfbd
000001a0: 327b 323d bb3f 153d b5ef 563c de9e 5bbc
000001b0: 1997 bdbc a6c2 bc3d 4c74 8e3d 0523 0e3e
000001c0: df20 cb3d b073 2b3c d9f5 e1bb 6424 87bd
000001d0: 77ce 933d da15 773d 72c6 8d3c ea2c b83d
000001e0: ce7b 53bd 065f 6a3d 382e 823d 5c29 3c3b
000001f0: 5f8c 64bd 5c40 fdbc ffa0 1a3d 66b4 8d3d
00000200: fab6 02bd bf7a d0bc b538 04be 67d8 1dbc
00000210: 3031 ce3d 34e0 f83d 3dc0 9e3d 285c c93c
00000220: 3692 023e 83ad 9e3d a5c8 ed3c 3ec8 9ebd
00000230: d64e 413b b2b7 16bd 5357 c03d 24a5 20bd
00000240: a762 f93d 9980 bebd 72a1 0f3e a678 4ebb
00000250: c427 0fbc d8d1 793d 5c46 d7bc 095f df3d
00000260: a4ef 27bd f6f6 143e 4520 47bd 172c 15bd
00000270: 3168 b73d 6dd2 c2bc d55c 953d cfb7 a9bd
00000280: 4ebe 843d 4efd afbd f1bd 643c c276 be3d
00000290: 1cdd eb3d 927c 083e 8c2b 593d 9c12 e2bc
000002a0: 9f04 bf3a 7c89 6fba 50e4 59bd 2a92 cfbc
000002b0: 32f6 5fbd 3fa1 023e a04b 98bd dc64 70bd
000002c0: bb15 59bd 43e0 29bd 6448 c4bc fa0b fd3d
000002d0: b1ad a9bd 5c01 e8bb c9e5 05bd 00c0 aabd
000002e0: da1e 0c3e 0886 aebd dbe0 633d f7cb 79bd
000002f0: 0126 78bd 4051 833d a772 0bbe f020 013e
00000300: 2714 533d 9855 393d 02ff 8fbd 7719 98bd
00000310: 9fec 02be 89a2 02bd fce2 e13c d3ea e5bd
00000320: 181a 65bb 8246 f5bd 9733 183d 14da 60bd
00000330: e414 9c3d abfe 553d f9f1 7dbd 8a8b 393d
00000340: b3c3 3bbd db7d 5a3d 0648 a73d a500 0fbd
00000350: 0908 f33d aa7a c23d 9c6a aabc e5f7 03bd
00000360: 0547 08bd 98d9 35bd f130 7d3d f910 dc3c
00000370: 84fb 733d c73e 0abe 5dfd c7bd cabe 08be
00000380: 0faa fe3c 5b2e a5bc 270b 033d df70 33bd
00000390: 5a3a 0d3c ae5d f5bc 2a32 babd 574f cbbd
000003a0: 4e37 d0bd 5c72 00be 990c b6bd edd7 9cbc
000003b0: 100e d2bd 3368 7bbc ecc1 6dbd 906a fcbd
000003c0: 4db7 41bb d6ad 273b c91c bebb a2f0 b8bd
000003d0: 59f3 343d e399 3fbd fd88 d23c ab2a 463d
000003e0: 7698 363d 5bb1 00be e865 85bd 18f3 51bd
000003f0: 6178 903d 12af 10be a860 11bd 840d 953d
0.0102208145 -0.09066338 -0.1439806 -0.14681472 -0.15773936 -0.06181045 -0.052950446 0.022919351
0.03469258 0.16257532 -0.070524 0.00861862 0.0073436256 0.09425626 -0.11393248 0.13162704
0.03171364 0.022964261 -0.00091741234 -0.038310394 0.053324755 -0.076924145 0.15186252 0.06827704
-0.032707613 0.025324428 0.051616877 0.13845317 -0.02666876 0.14564359 0.07628273 -0.10565199
-0.019062968 -0.10929623 0.09240097 -0.010406131 0.15495893 0.019461628 0.14011358 -0.036095455
0.046853084 -0.06872788 0.01408513 0.05280714 0.03862575 -0.04254076 0.09500898 -0.04943537
0.037620436 -0.031854827 -0.029468164 0.12848537 0.122173145 -0.046201106 0.004223262 -0.017153902
-0.04301736 -0.0026159915 -0.048291747 0.100438766 0.09203342 -0.06736507 0.057365883 0.093955755
-0.03652739 0.12773806 0.03905844 0.093679145 -0.009839039 -0.015371176 0.07053156 0.048516747
-0.07664576 0.10088699 -0.111257836 0.09500492 0.033681944 0.17033753 0.02976868 -0.036406618
-0.026796127 0.04783442 -0.07216412 -0.00824296 0.02105559 0.15267485 0.15326914 0.050104707
0.10329733 0.07923993 -0.051420562 0.037425276 0.009300409 0.14682746 0.030777214 -0.073059805
0.10712155 0.071794346 -0.0065233223 0.02908827 -0.020121947 0.029195465 -0.05631222 -0.10141539
0.04357452 0.03643773 0.013118674 -0.013404576 -0.023143338 0.09216814 0.069557756 0.13880546
0.09918379 0.010464594 -0.0068957624 -0.06598738 0.072171144 0.060323574 0.01730654 0.08992942
-0.05163174 0.057219528 0.06356472 0.0028711176 -0.05579793 -0.030914478 0.037751194 0.06919174
-0.03191278 -0.025449155 -0.12912257 -0.009634114 0.100679755 0.12152138 0.0775151 0.024580076
0.12751088 0.077479385 0.029026339 -0.07753037 0.0029496453 -0.03679628 0.09391656 -0.03921999
0.121770196 -0.09301872 0.1402643 -0.0031505018 -0.008737508 0.06099114 -0.026278667 0.109067984
-0.041000023 0.14547333 -0.04861476 -0.036419 0.0895542 -0.02378198 0.07293097 -0.08287012
0.0648161 -0.08593236 0.013961301 0.09299995 0.11516783 0.1332877 0.053020045 -0.027596764
0.0014573521 -0.0009137613 -0.05319625 -0.025338251 -0.05467815 0.12756823 -0.07436299 -0.058689937
-0.05299924 -0.04147364 -0.0239603 0.123558 -0.08285082 -0.00708024 -0.032689843 -0.08337402
0.13683644 -0.08521658 0.05563436 -0.06098553 -0.06058312 0.064119816 -0.13617955 0.12610221
0.05153289 0.045247644 -0.07031061 -0.07426732 -0.12785576 -0.031893287 0.027574055 -0.1122643
-0.003495818 -0.11976339 0.037158575 -0.054895476 0.07621172 0.052244823 -0.06199834 0.04529909
-0.04584093 0.05334268 0.08168034 -0.034912724 0.11866767 0.094960526 -0.020802788 -0.032218833
-0.033270855 -0.044396967 0.061814252 0.026863562 0.059566036 -0.1350051 -0.09765122 -0.1335403
0.03108695 -0.020163706 0.031993058 -0.043808814 0.008619869 -0.029951897 -0.09091599 -0.09927242
-0.101667985 -0.12543625 -0.088891216 -0.01914593 -0.102565885 -0.015344667 -0.058046266 -0.12325013
-0.0029558719 0.0025585792 -0.0058017713 -0.09030272 0.044177387 -0.046777617 0.025700087 0.048380535
0.04457899 -0.12567656 -0.06513578 -0.051257223 0.070542105 -0.14129284 -0.03549257 0.072779685

fc2.bias f4 [64]
00000000: 4403 bbbd f112 6abd e992 f53d 2e2d b23c
00000010: 2dda 9c3d 0454 a7bd cbc6 69bc 85d6 99bd
00000020: 6603 993d 049a dbbd 7c87 c8bd 7512 e9bd
00000030: 1aeb 733c d743 8e3d f0cf 093d ab7c c33d
00000040: 9c1d bc3c ed78 5e3d 3f3f 2c3c 02b3 c23d
00000050: fbb1 e63d c176 efbd a9bb 7dbb e763 de3a
00000060: 0c6a 99bd 6e0b c3bd 02c0 a3bc 937b f83d
00000070: daa1 bebd 0129 813d 3801 86bd c89c cabd
00000080: fb2b 5cbd 493b 0a3e 0d0b bd3d f8d7 333c
00000090: d0cc bfbd 773d fdbb f0ab cdbd 1909 f5bd
000000a0: e241 8ebc 8d94 223e 14f5 dfbd 3fb3 c4bd
000000b0: ef54 8bbd 4072 b3bb d1bb 063e d924 403c
000000c0: b98c 993d 96fc 0b3e 9f74 8b3c a0c1 df3d
000000d0: 2b7a 05be 716c 51bd a5b9 91bb b2ac d63d
000000e0: 0d02 5a3c 00fc dabd 32d3 f3bc 546b ee3d
000000f0: 3201 94bd 685e eabd 83a6 ffbc 5e82 10be
-0.09131482 -0.05714697 0.119909115 0.021750059 0.07658801 -0.081703216 -0.014268587 -0.075116195
0.07471351 -0.107227355 -0.097914666 -0.113804735 0.014887596 0.06946533 0.03364557 0.09545263
0.022963338 0.054314543 0.010513126 0.09506799 0.11264416 -0.116925724 -0.003871659 0.0016967029
-0.0749093 -0.095236644 -0.019989017 0.12132945 -0.093082145 0.06306649 -0.06543201 -0.09893185
-0.05375288 0.13499178 0.092306234 0.010976784 -0.09365237 -0.0077282744 -0.1004256 -0.11964626
-0.0173654 0.1587698 -0.10935417 -0.09604501 -0.06803309 -0.005476266 0.13157584 0.011727535
0.07497544 0.13670573 0.017023383 0.10925603 -0.13034885 -0.05112881 -0.0044471794 0.10482158
0.013306153 -0.106925964 -0.029763792 0.11641565 -0.072267905 -0.11443788 -0.031207329 -0.14112231

fc3.weight f4 [2, 64]
00000000: b749 1ebe e058 b53c 16e1 75bd 6faf 113d
00000010: 391b de3b c086 2c3e a5f1 cb3d fc9e fc3d
00000020: 622a 1b3e 5735 31bd 4861 613d 8e10 93bc
00000030: 1633 45bd 776d 8fbd ec8a 273e 0660 e3bd
00000040: 54ff 42bc d569 89bd dd9f 1abe b882 bb3d
00000050: 2e0c 8b3d ddca a43d 8982 a0ba 4968 25bd
00000060: 0745 533d 7f4a 113e 39a3 1abd c9bb 193e
00000070: 8873 5ebd bc3e 393c 554d 00bc bce6 6e3d
00000080: d312 893b 4dc0 dc3d 7998 f93d 8103 c03c
00000090: b6b3 f3bd 54e0 18be 80d4 b7bc 543e 7c3d
000000a0: d896 a6bd 8c11 d73d b4c5 a4bd 2b36 20be
000000b0: c1eb 933d caf3 c63d 7471 063e 91a2 2b3d
000000c0: 1dc6 54bd 2380 2c3e e66c f93c f1df abbc
000000d0: 0aa5 00be 2f5f 99bd cdb7 a23d f000 12be
000000e0: ab2e 35be 803a fd3a bc6a 173e 86ae 43be
000000f0: c81a b7bb b1e6 a43d fe17 0a3e 8cbf 86bc
00000100: 09a5 3bbe 71d7 ffbd 1ac3 9ebc 81a2 933c
00000110: 953f 60bd c287 863d 39c0 403e 687f 81bd
00000120: 133b 0b3e d06b d6bd 723b ec3c 13bb 05bc
00000130: 13f1 0c3d 3ccd f9bd 7db3 0abe f9d6 753d
00000140: b4d6 56bd 7ce3 0c3e 5423 67bd 6dcb d53d
00000150: c775 b33d b3c7 0dbd ba3d c1bd aeab f6bd
00000160: bf57 393e febd cb3d 5c5d 0e3e d636 90bc
00000170: fbce 29bd ec19 c1bd 37a6 2d3d 56b9 323d
00000180: f0d5 b0bc 0475 3a3e f606 5e3b b114 153e
00000190: f466 663d b8e6 ae3d 88a0 b63c a0c5 2c3d
000001a0: 57f6 6bbc 1d03 08be 184b c93d f6c0 a73d
000001b0: b001 26be 8384 eb3d eb89 e8bd 6168 223e
000001c0: 0b7f 1ebe 4aad c3bd 3686 233e 2008 3c3e
000001d0: dde2 25be 4748 2abe 4a03 f1bc 37ca 0cbe
000001e0: d1ab 343e 909d bdbd 54b5 03be cf7b ee3b
000001f0: 751c ae3d d16b 8c3d 37b0 0cbd 3b3e 1abd
-0.15457807 0.022137105 -0.06002911 0.035567697 0.0067781475 0.16848278 0.099581994 0.12335011
0.15152887 -0.04326376 0.055024415 -0.01795223 -0.048144422 -0.07003301 0.16361588 -0.111022994
-0.011901695 -0.06709639 -0.15100046 0.09155792 0.067894325 0.080465056 -0.0012245934 -0.040382657
0.0515795 0.14188574 -0.037753318 0.1501304 -0.054309398 0.011306461 -0.007830937 0.058325514
0.004183152 0.10778866 0.12187285 0.02343917 -0.118995115 -0.14929324 -0.022440195 0.06158288
-0.0813424 0.10501394 -0.080455214 -0.15645663 0.07222701 0.09714468 0.13129216 0.041903082
-0.051946748 0.16845755 0.030447435 -0.020980807 -0.12562957 -0.07488858 0.079452135 -0.1425817
-0.17693584 0.0019319803 0.1478681 -0.19109544 -0.0055879094 0.080518134 0.13485715 -0.016448759
-0.18324675 -0.12492264 -0.019380141 0.018021824 -0.054748137 0.065688625 0.18823327 -0.06323129
0.13596754 -0.10469782 0.02883694 -0.008162278 0.034409594 -0.121973485 -0.13545032 0.060019467
-0.05245085 0.13758653 -0.056430176 0.10439191 0.087626986 -0.034614276 -0.094356015 -0.12044464
0.18099879 0.099483475 0.13902801 -0.017604273 -0.041457158 -0.09428772 0.042394843 0.04363378
-0.021586388 0.182087 0.003387866 0.14558674 0.056250528 0.085401 0.022293344 0.042180657
-0.014401994 -0.13282438 0.09828776 0.08191101 -0.16211581 0.11499884 -0.11354431 0.1586013
-0.1547815 -0.09554537 0.15969166 0.18362474 -0.16199823 -0.16629134 -0.029420514 -0.13749014
0.17643668 -0.09258568 -0.1286214 0.0072779427 0.085015215 0.06856502 -0.03434774 -0.037657004

fc3.bias f4 [2]
00000000: 3e16 06bd 8aa8 da3d
-0.032736056 0.106766775
